mlartifacts/635037021632314375/a95c227f23214dadbe6f08e5c7996866/artifacts/best_model/data/model.pth (torch, 57372 bytes, 9 tensors)

weight_ih_l0 f4 [64, 1]
0	0x3dc37ff8	0.095458925
1	0x3dd47bcf	0.10375177
2	0xbd4d62d2	-0.05014307
3	0x3deb14e7	0.11478596
4	0xbd384190	-0.0449844
5	0x3d0a2f68	0.033736616
6	0xbd8c04e8	-0.06836873
7	0x3dc23db5	0.09484426
8	0x3de1accc	0.110192865
9	0xbdc94bdb	-0.098289214
10	0x3dde83a4	0.10864952
11	0x3cb5584e	0.022136834
12	0x3dd06893	0.10176196
13	0x3d019c35	0.03164311
14	0x3d911598	0.07084197
15	0xbd051f66	-0.032500647
16	0x3dda1475	0.10648433
17	0x3d0f79ac	0.035028145
18	0xbd81942e	-0.06327091
19	0x3cd60f3e	0.026130315
20	0xbd9cfcb1	-0.076653846
21	0xbcfe8b77	-0.031072361
22	0xbd8cbaf7	-0.06871598
23	0x3dce294a	0.10066469
24	0xbdd6bf8d	-0.10485754
25	0xbd9d0a1e	-0.07667945
26	0xbd527ba2	-0.051387437
27	0xbdc071c5	-0.093967
28	0xbc16c337	-0.009201816
29	0xbdfcd88a	-0.12345989
30	0x3de73228	0.112888634
31	0xbdd9a5c1	-0.10627318
32	0x3dc5a396	0.09650342
33	0x3d0f2d5f	0.03495538
34	0xbd60f556	-0.05492147
35	0x3d1818fc	0.037133202
36	0x3c8f6092	0.017502103
37	0x3de2f1a9	0.11081249
38	0x3cde966c	0.027171336
39	0xbd6587c0	-0.056037664
40	0x3d5b4eb1	0.053541843
41	0xbd6ece69	-0.058302317
42	0x3d9099c4	0.070605785
43	0x3de48ffe	0.11160277
44	0x3db6a389	0.089179106
45	0xbd90d133	-0.070711516
46	0x3c99057f	0.018679379
47	0xbbbee510	-0.005825646
48	0x3db023a3	0.08600547
49	0xbdc58ad7	-0.09645622
50	0xbdfd6aa4	-0.12373856
51	0xbd8ce1ce	-0.06879006
52	0xbde04779	-0.10951132
53	0x3dd20fa7	0.10256892
54	0x3d59f666	0.0532135
55	0x3d8ce25b	0.068791114
56	0x3d22bcf1	0.03973097
57	0x3c7ca519	0.015420222
58	0x3dc8099e	0.09767459
59	0xbdcc4f27	-0.099760346
60	0xbc3e5283	-0.011616352
61	0xbdbfde36	-0.09368555
62	0x3d67278f	0.05643421
63	0xbd772c30	-0.060344875

weight_hh_l0 f4 [64, 64]
0	0x3d1cd1b9	0.038285945
1	0xbcd57961	-0.026058855
2	0x3dd45b10	0.10368931
3	0xbd97c3ad	-0.07410369
4	0xbd98a596	-0.07453458
5	0xbd98b4a8	-0.074563324
6	0x3de64a33	0.11244621
7	0x3d2a8f06	0.041640304
8	0x3df64db3	0.12026539
9	0xbdd33cf1	-0.10314358
10	0xbdfdf3f5	-0.12400047
11	0xbdc83f87	-0.09777742
12	0xbdac3db7	-0.08410209
13	0x3d4f6c07	0.050640132
14	0x3d3744db	0.0447434
15	0x3dd4bf44	0.103880435
16	0xbd843cd1	-0.06456912
17	0xbdae8b5c	-0.085226744
18	0x3d87dc52	0.0663382
19	0xbd4ed8f5	-0.050499875
20	0x3d9b67b8	0.07588142
21	0xbcf2defb	-0.029647341
22	0x3d9279f4	0.07152167
23	0xbdc6efbd	-0.09713695
24	0xbd81285d	-0.06306527
25	0x3d1c29a1	0.038125638
26	0x3cd89a81	0.02644086
27	0xbd027915	-0.031853754
28	0x3d9869f5	0.07442085
29	0x3dae1057	0.0849921
30	0xbdb9ad53	-0.09066262
31	0xbd88a339	-0.06671757
32	0x3dea6075	0.11444179
33	0xbd2cc9b6	-0.042184554
34	0xbd357253	-0.04429848
35	0xbdf7c717	-0.1209852
36	0xbd929ac6	-0.07158427
37	0x3cffaa9f	0.031209288
38	0xbc871112	-0.016487632
39	0xbdb9cb68	-0.09072
40	0x3b3f1f79	0.0029163046
41	0xbdaed614	-0.08536926
42	0xbdd938e2	-0.10606553
43	0xbd8d0097	-0.06884878
44	0xbde01643	-0.10941746
45	0xbda2f8ea	-0.07957633
46	0x3dffcef2	0.124906436
47	0x3cc0e5b7	0.023547037
48	0x3d1db63d	0.038503874
49	0xbdeebc0a	-0.11656959
50	0xbda819f7	-0.082080774
51	0xbd2a5b37	-0.041590896
52	0x3ca041a9	0.01956256
53	0xbde14ae3	-0.11000612
54	0xbd5cac22	-0.053875096
55	0xbd994ab2	-0.0748495
56	0x39aeec53	0.00033363941
57	0xbd3e70b7	-0.046494212
58	0xbc0e2eb1	-0.008678124
59	0xbdad70c7	-0.08468776
60	0xbdafc463	-0.0858238
61	0xbd955175	-0.07290927
62	0xbd2f5249	-0.042803083
63	0xbdca05fa	-0.09864421
64	0x3dd6a5f6	0.10480873
65	0xbccb3a26	-0.024808
66	0x3ddc42f6	0.10754959
67	0x3d1f87b0	0.03894776
68	0xbdd8c7b0	-0.10584962
69	0x3db12938	0.0865044
70	0xbd0cdfc8	-0.034393102
71	0xbd444350	-0.047915757
72	0xbdd47f80	-0.10375881
73	0xbdfe8150	-0.12427008
74	0x3d127d18	0.03576383
75	0xbcdfafc0	-0.027305484
76	0x3d47555c	0.04866539
77	0xbdd21700	-0.10258293
78	0x3dbe0fd6	0.09280364
79	0xbdbbeaf2	-0.09175672
80	0xbcb0d146	-0.021584164
81	0x3cd5e1f2	0.026108716
82	0x3d842914	0.064531475
83	0x3dceabe4	0.10091379
84	0x3de934a0	0.113869905
85	0xbdcafcf2	-0.09911527
86	0x3d00da88	0.031458408
87	0xbd5c3978	-0.053765744
88	0xbc606e08	-0.0136981085
89	0xbdbf9d0c	-0.09356126
90	0x3de92e08	0.11385733
91	0xbdbbe42e	-0.09174381
92	0x3d88d1cc	0.066806406
93	0x3d33efe4	0.04392995
94	0x3d2660a0	0.040619493
95	0xbd8a67ca	-0.067580774
96	0x3de8b10c	0.11361894
97	0x3ce10642	0.027468804
98	0x3c83ba36	0.016080003
99	0xbde199ea	-0.11015685
100	0x3d56ee84	0.05247356
101	0xbc999efe	-0.018752571
102	0xbd6a8f44	-0.057265535
103	0x3ddbe3ec	0.10736832
104	0x3ce44cb2	0.027868602
105	0xbd8da386	-0.06915955
106	0xbd819252	-0.063267365
107	0xbbc39b6d	-0.005969456
108	0x3d8ef0c4	0.06979516
109	0xbd02d554	-0.031941727
110	0xbd921132	-0.07132186
111	0xbd2f54ac	-0.04280536
112	0xbdbf404c	-0.093384355
113	0x3d369888	0.04457906
114	0x3dc62780	0.09675503
115	0xbdf1023c	-0.11768004
116	0x3cedd31e	0.029031333
117	0x3d843f5c	0.06457397
118	0x3cb9ae6a	0.022666175
119	0xbd3655f8	-0.04451558
120	0x3d859e00	0.06524277
121	0x3d868808	0.06568915
122	0x3d3f7364	0.046740904
123	0xbcb3f052	-0.02196518
124	0xbd079408	-0.033100158
125	0x3c5b18c8	0.0133726075
126	0xbcb4e4ce	-0.022081759
127	0xbd189398	-0.03725013
128	0x3d70d78f	0.058799323
129	0x3db0ca4f	0.08632337
130	0x3c0f7200	0.008755207
131	0xbd49112f	-0.049088653
132	0x3cbc28e4	0.022968717
133	0xbce8335a	-0.028344799
134	0x3d518376	0.05115076
135	0x3c643088	0.013927586
136	0xbe09dd60	-0.13463354
137	0xbccd07e0	-0.02502817
138	0x3dac5e7f	0.08416461
139	0x3cee6dbc	0.02910506
140	0xbcdfcb8e	-0.027318742
141	0xbdca333e	-0.09873055
142	0xbdc7d67e	-0.09757708
143	0xbdb9fcc6	-0.09081416
144	0xbd7d531e	-0.061846845
145	0x3cab8a19	0.020939874
146	0x3dce7257	0.10080402
147	0x3d1ceeb6	0.03831359
148	0xbdb712c6	-0.089391276
149	0xbd5d43b7	-0.054019656
150	0x3ab44441	0.0013753251
151	0x3dcc6ceb	0.09981712
152	0x3d207f1e	0.03918373
153	0xbc38a2e4	-0.011269305
154	0x3d95416e	0.0728787
155	0xbcd928a6	-0.02650864
156	0xbdc33602	-0.095317855
157	0x3de61131	0.11233748
158	0xbd9f9ea4	-0.0779393
159	0xbb81a7f0	-0.0039567873
160	0xbe14f15d	-0.14545198
161	0x3d7de1bc	0.061982855
162	0x3ded2b68	0.11580545
163	0x3cc9af4a	0.024619717
164	0xbdd430a4	-0.1036084
165	0xbe13efaa	-0.14446893
166	0xbdff9a71	-0.12480629
167	0x3dea21bc	0.114322156
168	0x3d1f51a0	0.038896203
169	0x3e015253	0.1262906
170	0x3d35c9fd	0.044382084
171	0x3c2c9ada	0.010534966
172	0xbcb6e446	-0.022325646
173	0xbd977897	-0.073960476
174	0xbe02feb9	-0.12792481
175	0xbe01a095	-0.12658913
176	0x3cf6526c	0.030068599
177	0xbd24f173	-0.040269326
178	0xbb84dff0	-0.0040550157
179	0xbd50398d	-0.050836135
180	0xbadbba04	-0.0016763811
181	0xbddf65d3	-0.10908093
182	0xbdd280d1	-0.10278476
183	0x3ca6ccc1	0.020361306
184	0xbd6e140b	-0.058124583
185	0x3d5ee019	0.054412935
186	0xbd7aaf9e	-0.061202638
187	0xbd9093c5	-0.07059435
188	0xbbbf9091	-0.005846091
189	0xbd21c250	-0.03949195
190	0xbd731b35	-0.05935212
191	0xbdc87d70	-0.0978955
192	0x3d8f3a66	0.069935605
193	0xbdb23adc	-0.08702633
194	0x3d80abf1	0.06282795
195	0x3d6855a5	0.056722302
196	0x3db6e573	0.08930483
197	0xbdc45de3	-0.0958822
198	0x3db81dae	0.08990036
199	0xbd720d43	-0.05909468
200	0x3d3dfc05	0.046382923
201	0x3df06a38	0.117390096
202	0xbc906c0b	-0.017629644
203	0xba7d901e	-0.0009672659
204	0xbcebc2f3	-0.028779482
205	0xbdd5c1a2	-0.10437323
206	0x3d75b511	0.05998713
207	0xbdfe225f	-0.124088995
208	0x3d9eec58	0.07759923
209	0x3dbf8b51	0.09352744
210	0x3df21a36	0.118214056
211	0xbcf18bfe	-0.029485699
212	0xbdd256ba	-0.10270448
213	0x3ce63b44	0.028104432
214	0x3d8d6c46	0.06905417
215	0xbdfeccf4	-0.124414355
216	0xbce86d05	-0.028372297
217	0xbd997584	-0.074931175
218	0xbc331dcb	-0.010932396
219	0xbd7c02a5	-0.06152596
220	0xbd514adb	-0.05109678
221	0xbd228935	-0.039681632
222	0xbdf34786	-0.118788764
223	0x3dd20d2e	0.1025642
224	0x3dd69c7a	0.10479064
225	0xbca0a32d	-0.019609058
226	0xbc693875	-0.014234652
227	0xbd50f5e0	-0.051015735
228	0xbde72f93	-0.11288371
229	0xbdf92064	-0.12164381
230	0x3d3e49e9	0.046457205
231	0xbd8c8de6	-0.068630025
232	0xbda493fa	-0.08036037
233	0xbc1fc817	-0.009752295
234	0xbd2a8133	-0.04162712
235	0xbd25a547	-0.040440824
236	0x3b839767	0.0040158513
237	0xbcd9329d	-0.026513392
238	0xbd304a80	-0.0430398
239	0xbd7526a3	-0.0598513
240	0xbdd05764	-0.101729184
241	0x3dd6a8ce	0.10481416
242	0xbd4ce491	-0.050022665
243	0x3d07ac27	0.03312316
244	0xbd31a4c1	-0.043370012
245	0x3c2669c6	0.010157054
246	0x3deeaad8	0.116536796
247	0x3d6be315	0.05758961
248	0xbdddd9e0	-0.10832572
249	0x3d4b36bf	0.049612757
250	0x3df3012e	0.118654594
251	0x3d06b39f	0.032886144
252	0x3daba0fc	0.08380315
253	0x3dfc6386	0.1232367
254	0xbc9ce971	-0.019154282
255	0x3cd48a8b	0.025944969

bias_ih_l0 f4 [64]
0	0x3de8db1f	0.11369919
1	0xbc677be8	-0.014128663
2	0x3cdd1f98	0.026992604
3	0xbdcb5278	-0.09927839
4	0x3d49419f	0.049134847
5	0x3e037b85	0.12840088
6	0x3d61ae32	0.055097766
7	0xbd3e5ae9	-0.046473417
8	0x3dd0b8c0	0.10191488
9	0xbdf2a60e	-0.11848079
10	0xbc75c0d0	-0.014999583
11	0xbcfe42e2	-0.031037752
12	0xbdfeeeb6	-0.12447874
13	0xbd650a36	-0.05591794
14	0xbdb8592f	-0.090013854
15	0x3c95072e	0.0181919
16	0xbc27cb28	-0.010241307
17	0x3d992763	0.074782155
18	0xbcfc561f	-0.030802784
19	0x3dc91cdf	0.0981996
20	0x3b6d8c3f	0.0036246923
21	0x3db119c7	0.08647495
22	0x3db0d9c3	0.08635285
23	0xbdd7bb19	-0.10533733
24	0xbdac193f	-0.08403253
25	0x3d806105	0.06268505
26	0x3dd1142f	0.10208928
27	0xbddc116e	-0.10745512
28	0xbca28963	-0.019840902
29	0xbd44d814	-0.04805763
30	0x3df103b6	0.11768286
31	0x3dd4a9e0	0.103839636
32	0x3dba5146	0.09097533
33	0x3da793a3	0.08182456
34	0xbcc2fac2	-0.023801211
35	0x3de271ec	0.11056885
36	0xbd6be44a	-0.05759076
37	0x3bd06421	0.0063595925
38	0xbc9c7749	-0.019099848
39	0xbddd0eff	-0.10793876
40	0xbd1e54cb	-0.038655084
41	0x3c61c108	0.013778932
42	0x39e33731	0.00043337935
43	0xbda9965e	-0.082806334
44	0xbc78a759	-0.015176618
45	0x3c2e3855	0.010633548
46	0xbd8244d8	-0.06360787
47	0x3d423c62	0.047420867
48	0xbdd44bbb	-0.10366007
49	0xba79350e	-0.0009506502
50	0xbdd169f4	-0.10225287
51	0xbdff0b39	-0.124533124
52	0xbc833c1c	-0.016019873
53	0x3de856d8	0.11344689
54	0x3e0ab5a4	0.13545853
55	0x3d6fa482	0.058506496
56	0x3dc86df9	0.097866006
57	0xbd4eaa07	-0.05045512
58	0x3d901ec5	0.07037119
59	0x3d9a7c28	0.07543212
60	0xbe0e4f97	-0.13897549
61	0xbdc5ef0f	-0.096647374
62	0x3d93bf2d	0.07214198
63	0xbba92a8c	-0.0051625427

bias_hh_l0 f4 [64]
0	0xbdad505f	-0.08462595
1	0xbdca03f2	-0.09864034
2	0x3d8dcd7b	0.06923958
3	0x3c5fb766	0.013654565
4	0xbc9168cb	-0.017750164
5	0xbde522ab	-0.11188253
6	0x3dcc245d	0.09967873
7	0xbda330f9	-0.07968325
8	0x3d64240c	0.05569844
9	0xbc77d5fd	-0.015126702
10	0x3b8578a0	0.0040732175
11	0x3d7b20b7	0.061310496
12	0xbd078d60	-0.03309381
13	0xbca13138	-0.01967679
14	0x3dce3fa9	0.10070736
15	0xbde3b73f	-0.11118936
16	0x3d647c1e	0.05578243
17	0xbc73e430	-0.014885947
18	0xbd361124	-0.04444994
19	0x3da15077	0.078766756
20	0x3c2d2ad8	0.010569297
21	0xbe08b951	-0.13351943
22	0x3dc5bbdb	0.09654971
23	0xbd7b507b	-0.06135605
24	0x3ddd21bf	0.10797452
25	0xbd545231	-0.051836196
26	0x3dd8d3c5	0.10587267
27	0x3d13e772	0.036109395
28	0xbce2fdb7	-0.027708871
29	0x3d437284	0.047716632
30	0xbb7ebf40	-0.0038871318
31	0xbd7df29d	-0.061998952
32	0x3d8c08ca	0.06837614
33	0x3dc3dbcd	0.09563408
34	0xbce33672	-0.027735922
35	0x3de705d2	0.11280407
36	0x3c10daa4	0.0088411905
37	0xbd8703e1	-0.06592537
38	0xbd5e8806	-0.05432894
39	0x3d89f06d	0.06735311
40	0xbcf63630	-0.030055135
41	0x3d7fae90	0.062422335
42	0xbde0f2e5	-0.109838285
43	0x3b8d1860	0.0043058842
44	0xbdaf6b0c	-0.085653394
45	0x3d08bf6d	0.033385683
46	0x3e005f5e	0.1253638
47	0x3cacff2d	0.021117771
48	0xbd2555aa	-0.0403649
49	0xbdf48d75	-0.11941043
50	0xbd7295f0	-0.059225023
51	0xbdaf3013	-0.08554091
52	0x3df37373	0.118872546
53	0xbd89a44a	-0.06720789
54	0x3d8664c0	0.06562185
55	0x3de9520a	0.11392601
56	0x3d3c97fa	0.046043374
57	0xbdbc081a	-0.09181233
58	0xbc68ae53	-0.014201718
59	0xbd1b651a	-0.037938215
60	0x3d79f61e	0.06102573
61	0xbc4e2176	-0.01258122
62	0x3c3d2c32	0.0115461815
63	0x3dc18052	0.09448303

weight_ih_l1 f4 [64, 64]
0	0x3d94aac1	0.07259131
1	0x3dce6b38	0.10079044
2	0xbdaa2bc1	-0.08309127
3	0x3dff2a8d	0.12459288
4	0xbccbdbb5	-0.024885038
5	0x3c92dfe3	0.017929023
6	0xbc99a838	-0.01875697
7	0xbd638544	-0.055547014
8	0x3d4252d2	0.047442265
9	0x3c6d3fb6	0.014480522
10	0xbd97f745	-0.0742021
11	0xbccb7656	-0.0248367
12	0x3df8236d	0.12116132
13	0x3d418b71	0.047252122
14	0x3d1e0ebb	0.038588267
15	0xbcf6b746	-0.030116688
16	0xbc593134	-0.01325636
17	0x3e15cb3a	0.14628306
18	0xbd624372	-0.055240102
19	0xbb7dcfd8	-0.003872862
20	0x3cbc0724	0.022952624
21	0xbe16722e	-0.14691994
22	0xbd86f819	-0.065902896
23	0x3d6319d8	0.05544457
24	0xbda73252	-0.08163895
25	0x3cce522e	0.02518567
26	0xbe1933fe	-0.1496124
27	0xbda18d54	-0.07888284
28	0xbd5e5e7a	-0.05428932
29	0x3d9522eb	0.07282051
30	0x3dbdea28	0.092731774
31	0xbe0b5b95	-0.13609155
32	0x3dbaf726	0.09129171
33	0x3d267ac0	0.040644407
34	0x3d929981	0.07158185
35	0x3de49393	0.1116096
36	0xbd1d3a75	-0.038385827
37	0x3e1df8ef	0.15426992
38	0x3cb7cb58	0.022435829
39	0xbd920bac	-0.071311325
40	0x3da44e9b	0.08022805
41	0x3da696e5	0.081342496
42	0x3da4fdd4	0.080562264
43	0xbd9f4195	-0.07776181
44	0x3b40de4b	0.0029429372
45	0x3d96a25b	0.073551856
46	0xbb79b16e	-0.003810014
47	0xbd8435b5	-0.06455556
48	0xbd689c67	-0.056789782
49	0xbde51077	-0.11184781
50	0xbde3b735	-0.11118928
51	0xbc54df9a	-0.012992764
52	0x3be879ea	0.0070946114
53	0x3e2608d7	0.1621431
54	0x3dffc185	0.12488083
55	0x3d371029	0.044693146
56	0x3de1c7c5	0.11024431
57	0x3df10b78	0.117697656
58	0xbd850eb9	-0.06496949
59	0x3ca5b5e4	0.020228334
60	0xbe03e425	-0.12879999
61	0x3d5be09a	0.053680994
62	0xbc3cbfe0	-0.011520356
63	0xbc8a87d2	-0.016910467
64	0x3d328fe4	0.043594256
65	0x3dd2c62b	0.10291704
66	0xbcd0d0b6	-0.025490146
67	0xbd3b646a	-0.04575006
68	0x3bbab7d6	0.0056981845
69	0x3df35ba5	0.11882714
70	0xbde15203	-0.110019706
71	0xbd1420b7	-0.03616401
72	0xbd24a0e4	-0.0401925
73	0xbdd89011	-0.105743535
74	0x3ceeeb1d	0.029164845
75	0x3d567e4f	0.05236655
76	0x3d346614	0.04404266
77	0x3c5f7add	0.013640133
78	0x3dfade16	0.12249391
79	0xbd1d1e75	-0.038359124
80	0xbce29183	-0.027657276
81	0x3c43c51f	0.011948853
82	0xbdf2840e	-0.11841594
83	0xba7f6703	-0.0009742828
84	0xbe26bee9	-0.16283764
85	0xbcbd7ee2	-0.023131792
86	0xbe112e98	-0.1417793
87	0x3dbf043b	0.09326979
88	0x3d26bafe	0.040705673
89	0xbe0d39be	-0.13791558
90	0xbde3234e	-0.11090718
91	0xbe1323e6	-0.14369163
92	0x3cf2eda4	0.029654332
93	0xbca9e18b	-0.02073743
94	0xbca083e3	-0.019594138
95	0x3cfa8f0e	0.030585792
96	0x3dc63b1f	0.09679245
97	0xbd8a6382	-0.06757261
98	0xbd53dc71	-0.0517239
99	0xbc15c220	-0.009140521
100	0x3c4755a5	0.012166415
101	0x3dea8bef	0.114524715
102	0x3d0974ce	0.03355866
103	0xbe06e703	-0.13174061
104	0x3e080c01	0.13285829
105	0xbe23003a	-0.15918055
106	0x3b02c1da	0.001995197
107	0x3dbea513	0.09308829
108	0x3e1f23fa	0.15541068
109	0x3d9c741d	0.07639334
110	0x3c518ad9	0.0127894515
111	0x3d0bddca	0.03414706
112	0xbd84d296	-0.064854786
113	0xbd8dd138	-0.06924671
114	0xbdaba291	-0.083806165
115	0xbc1aaaf2	-0.009440171
116	0xbe01de42	-0.12682441
117	0x3d935011	0.07193006
118	0x3de04436	0.1095051
119	0x3e11c264	0.1423431
120	0x3cc2b998	0.023770139
121	0x3e29b20e	0.16571829
122	0xbd95dda1	-0.07317663
123	0xbda48c61	-0.08034588
124	0x3afeef95	0.0019450063
125	0xbc52e0f2	-0.012871014
126	0x3dd49193	0.103793286
127	0xbe02f0bf	-0.1278715
128	0x3cef00e3	0.029175228
129	0xbe2911da	-0.16510716
130	0xbd1b4883	-0.03791095
131	0xbd6692cf	-0.05629235
132	0xbd96cd9e	-0.07363437
133	0xbe2ad4ae	-0.16682693
134	0xbd816208	-0.06317526
135	0x3d57e39a	0.052707292
136	0xbca6e31e	-0.02037197
137	0x3c018e24	0.007907424
138	0xbd58cbbf	-0.052928682
139	0xbe1e2ac0	-0.15445995
140	0xbe29d408	-0.1658479
141	0xbe0bd8f0	-0.13656974
142	0xbe2cc54e	-0.16872141
143	0x3e052fd7	0.1300653
144	0xbdbb7572	-0.0915326
145	0xbda72b33	-0.081625365
146	0xbd75275a	-0.05985198
147	0xbccbeadd	-0.024892265
148	0x3ceddf3a	0.029037107
149	0xbd18a408	-0.037265807
150	0x3e0301d1	0.12793662
151	0x3d6bd114	0.05757244
152	0xbd293095	-0.041306097
153	0x3df2ebd2	0.118613854
154	0x3ce15c46	0.02750982
155	0x3d3eeb5f	0.046611186
156	0x3d7525c9	0.059850488
157	0x3cccd037	0.025001628
158	0x3d6f43a5	0.05841412
159	0x3dff6270	0.12469947
160	0xbe040700	-0.12893295
161	0xbdfe893a	-0.12428518
162	0xbd9bc496	-0.07605855
163	0xbbf609f1	-0.0075085093
164	0xbe04a07a	-0.12951842
165	0xbe1c39bb	-0.15256397
166	0xbe04ef0e	-0.12981817
167	0xbd9b384e	-0.07579099
168	0xbe192a6b	-0.14957587
169	0x3e231c3f	0.15928744
170	0x3cb47c1f	0.022031842
171	0x3d80f23a	0.06296201
172	0xbdde0ea8	-0.10842639
173	0xbb63e33d	-0.0034772896
174	0xbdb5cf28	-0.088774025
175	0x3c5bd0d9	0.013416492
176	0xbe0ccfff	-0.13751219
177	0x3d87681d	0.06611655
178	0xbd04630b	-0.032321017
179	0x3d8a5474	0.067543894
180	0x3e262faf	0.16229127
181	0xbcda8ddb	-0.02667897
182	0x3d31b77f	0.043387886
183	0xbe0c19f7	-0.1368178
184	0xbd85f7c0	-0.06541395
185	0xbe0493d1	-0.12947012
186	0xbd7c8edf	-0.06165969
187	0xbafd6637	-0.001933283
188	0xbccd4e57	-0.02506177
189	0xbd956780	-0.07295132
190	0xbdc0cd8a	-0.094142035
191	0x3d842917	0.0645315
192	0xbd834f3b	-0.064115964
193	0xbe225969	-0.1585442
194	0x3e0b4c5f	0.13603352
195	0x3d4f181a	0.050560094
196	0xbd081373	-0.033221673
197	0xbcf19da2	-0.02949411
198	0x3e002142	0.12512687
199	0xbe24b12d	-0.16083212
200	0xbe1c3ce7	-0.15257607
201	0x3de451b2	0.11148395
202	0xbd36b029	-0.044601593
203	0xb9947794	-0.00028317852
204	0xbdc0bb84	-0.09410766
205	0xbcadff8c	-0.021240018
206	0x3d27082c	0.040779278
207	0x3c3e19fb	0.011602874
208	0xbda8f685	-0.08250145
209	0xbe252aeb	-0.16129653
210	0x3cbb1543	0.022837287
211	0x3d1faf40	0.03898549
212	0xbd9ba9fa	-0.0760078
213	0x3d054ace	0.032542042
214	0x3e0870cb	0.13324277
215	0xbd9f56fa	-0.07780261
216	0xbb84f64f	-0.0040576826
217	0x3b90e640	0.004421979
218	0xbc0b58af	-0.008505031
219	0x3d69d3a4	0.0570866
220	0xbdf1c5b8	-0.1180529
221	0x3db819ca	0.08989294
222	0xbd96ed91	-0.07369531
223	0x3cd6b897	0.026211066
224	0xbd4f1770	-0.05055946
225	0x3cdfffbf	0.027343629
226	0xbd117cff	-0.035519596
227	0xbe1f52a0	-0.15558863
228	0xbdf79b7a	-0.12090202
229	0xbe090959	-0.13382472
230	0xbdd6d22f	-0.10489308
231	0x3e103c5b	0.14085524
232	0xbe0e2a5a	-0.13883343
233	0xbd006b52	-0.03135235
234	0xbe137bb4	-0.14402658
235	0xbdd6e0e6	-0.10492115
236	0xbd3aebc1	-0.04563499
237	0xbd0ba6d6	-0.034094654
238	0xbd1d61bc	-0.038423285
239	0x3d460da3	0.04835285
240	0xbd81d448	-0.063393176
241	0x3dc4ba34	0.09605828
242	0x3d910474	0.070809275
243	0x3e26c948	0.1628772
244	0x3d126876	0.035744153
245	0x3d879de6	0.066219136
246	0x3d52ac3a	0.05143378
247	0x3c906ccc	0.017630003
248	0x3cea96c4	0.028636344
249	0xbe0cde1e	-0.13756606
250	0xbe00dd42	-0.12584403
251	0x3dc398c1	0.0955062
252	0x3db1caff	0.086812966
253	0x3e1ea61b	0.15493052
254	0xbd6f3834	-0.05840321
255	0x3c9cdbc5	0.019147763

weight_hh_l1 f4 [64, 64]
0	0x3e304e33	0.1721733
1	0x3da88b6f	0.0822972
2	0x3d6e2eb2	0.05815
3	0x3990943e	0.0002757627
4	0xbd79eaf9	-0.061015103
5	0x3cb6ae5a	0.022299934
6	0x3c970fd6	0.018440168
7	0x3d172b45	0.0369065
8	0x3d845f91	0.0646354
9	0x3d503fb1	0.05084199
10	0x3cdecfa7	0.027198626
11	0x3bf1750a	0.0073686885
12	0x3cfd2a44	0.030903943
13	0x3e37117f	0.17877768
14	0x3d93de09	0.07220084
15	0x3e1a626a	0.15076604
16	0x3da984bb	0.082772695
17	0x3d848981	0.06471539
18	0xbd6438ca	-0.05571822
19	0x3ca917b1	0.02064118
20	0xbe0c31b3	-0.13690834
21	0xbd5a511e	-0.053300016
22	0x3dbad286	0.091221854
23	0xbd93032a	-0.07178338
24	0xbc42d97e	-0.0118926745
25	0xbc68057b	-0.014161463
26	0x3d3497e7	0.044090178
27	0xbdfb0cff	-0.12258338
28	0x3de3cdab	0.111232124
29	0xbd2fd8e3	-0.04293145
30	0x3d8944cb	0.06702574
31	0xbd8318cc	-0.06401214
32	0xbe2dc2d9	-0.1696886
33	0x3cd0f8ab	0.0255092
34	0xbd4d5ebc	-0.050139174
35	0xbdd80944	-0.10548642
36	0xbd8a9fe8	-0.06768781
37	0x3dcf4435	0.10120431
38	0x3d576843	0.052589666
39	0xbd9bcaaa	-0.076070145
40	0x3c31bef6	0.010848751
41	0xbe1bda9f	-0.15220116
42	0x3e0b4410	0.13600183
43	0xbdc11f53	-0.09429803
44	0xbdcee637	-0.10102504
45	0x3dcea57c	0.100901574
46	0x3e232cb6	0.15935025
47	0x3df646de	0.120252356
48	0x3db2f017	0.087372
49	0x3d6f20d2	0.05838091
50	0xbd432994	-0.047647074
51	0x3db463a3	0.08808067
52	0x3d25f0b5	0.04051276
53	0xbdfafee1	-0.122556455
54	0xbdf900a4	-0.12158325
55	0x39db9afa	0.00041886402
56	0x3dfa7dff	0.12231063
57	0xbe117bdc	-0.14207405
58	0xbe1627e2	-0.14663652
59	0x3d15f85c	0.036613807
60	0x3d2c459b	0.04205857
61	0xbe253603	-0.16133885
62	0x3c80a4a0	0.0157035
63	0xbdaa4060	-0.0831306
64	0xbbdab8f8	-0.006674882
65	0x3de0dddb	0.109798156
66	0x3d553b18	0.05205831
67	0x3ca63db5	0.020293096
68	0xbdc1ebd3	-0.09468808
69	0xbe154ad5	-0.14579327
70	0xbe23a2bd	-0.15980048
71	0x3c4b188c	0.012395989
72	0x3c0e878e	0.008699311
73	0xbd0f66b7	-0.035010066
74	0xbd0967ea	-0.033546366
75	0xbdd09ccf	-0.10186159
76	0x3dbde933	0.09272995
77	0x3a36f847	0.0006979745
78	0xbd7a5072	-0.061111875
79	0x3c16fc3e	0.009215413
80	0x3e1146eb	0.1418721
81	0xbd53d9a9	-0.05172125
82	0xbd156287	-0.036470916
83	0xbd488005	-0.048950214
84	0xbdb07633	-0.08616295
85	0x3d5963f5	0.053073842
86	0x3e0ea73a	0.1393098
87	0x3d86bebd	0.06579349
88	0xbd29163d	-0.041280974
89	0x3dadcff5	0.0848693
90	0xbcc6bf11	-0.02426103
91	0xbe013962	-0.12619546
92	0x3d961790	0.07328713
93	0x3d943d4b	0.07238253
94	0x3e0320cf	0.12805484
95	0xbda5516a	-0.08072169
96	0x3d7a25fc	0.06107138
97	0xb9fff6b6	-0.00048821204
98	0xbde0bf99	-0.10974044
99	0xbd93703d	-0.07199142
100	0x3db322d1	0.08746875
101	0xbd5f6d5a	-0.054547645
102	0xbdda76ea	-0.10667212
103	0xbc0369d3	-0.008020836
104	0x3d7f61bb	0.062349062
105	0x3c2b3e39	0.010451847
106	0xbaff6f27	-0.0019488082
107	0x3d60a171	0.054841463
108	0xbdea6bc1	-0.11446334
109	0xbba7acf6	-0.005117054
110	0x3e0dc34c	0.13844031
111	0x3d2f7f8b	0.042846244
112	0x3db99c5d	0.09063027
113	0xbda410a9	-0.0801099
114	0xbe1236ed	-0.14278765
115	0x3d8e60b2	0.06952037
116	0x3de1a346	0.1101747
117	0x3d1a3ac6	0.037653707
118	0xbd030244	-0.031984583
119	0x3d8812b6	0.06644194
120	0x3e13445b	0.14381544
121	0xbcc6abdf	-0.024251876
122	0xbd2d97cc	-0.042381093
123	0x3d8ca893	0.068680905
124	0xbd8b0113	-0.06787314
125	0xbd0f01df	-0.034913894
126	0x3d59e972	0.053201146
127	0x3c10170d	0.008794558
128	0xbd8b63cc	-0.06806144
129	0xbdfaf02a	-0.12252839
130	0x3dc21aef	0.094777934
131	0xbca3a402	-0.019975666
132	0x3e1490dc	0.14508384
133	0x3e1bfee4	0.15233952
134	0x3d9f1e87	0.077694945
135	0xbd928afa	-0.07155414
136	0xbd678da2	-0.056531556
137	0xbb2656d2	-0.0025381339
138	0xbd044c29	-0.032299194
139	0x3cb54868	0.022129253
140	0xbe09379d	-0.13400121
141	0xbe351c83	-0.17686658
142	0xbd253374	-0.040332273
143	0xbe041af0	-0.12900901
144	0x3d0770fa	0.033066727
145	0x3c6428f7	0.013925782
146	0xbdcf250c	-0.10114488
147	0xbcdd3cac	-0.02700647
148	0x3e28e10e	0.16492102
149	0xbceff874	-0.029293276
150	0x3b881e64	0.0041540135
151	0xbcfe0fe1	-0.031013431
152	0x3c341935	0.010992338
153	0xbdf3222a	-0.11871751
154	0x3ca309c9	0.019902127
155	0xbd530113	-0.051514696
156	0xbdf84f7a	-0.12124534
157	0xbc96d00d	-0.018409753
158	0xbda7fcb1	-0.08202494
159	0x3db3625e	0.087589964
160	0x3dfc4ff3	0.123199366
161	0xbad29cdb	-0.0016068475
162	0xb83148a2	-4.2267733e-05
163	0xbd85d559	-0.065348335
164	0xbe2e5e92	-0.17028263
165	0xbd76e602	-0.060277946
166	0x3e203493	0.15645055
167	0x3d22cb4e	0.039744668
168	0x3c76d574	0.01506554
169	0xbc814e3c	-0.015784375
170	0xbd2fbddd	-0.042905677
171	0xbd28e18c	-0.041230723
172	0x3d2544e4	0.040348902
173	0xbcfdfa72	-0.03100321
174	0xbde05134	-0.10952988
175	0x3d5120f8	0.051056832
176	0xbcb0ddaa	-0.021590073
177	0x3df53cb0	0.11974466
178	0x3e3a0f2f	0.18169855
179	0xbc9fb022	-0.019493166
180	0xbd84d1a3	-0.064852975
181	0x3ddf5c70	0.10906303
182	0x3e78329c	0.24238056
183	0xbe4375e9	-0.19087948
184	0xbda18044	-0.07885793
185	0x3df94868	0.121720135
186	0x3c9efb70	0.019407004
187	0xbe2a580b	-0.16635148
188	0xbc809b47	-0.015699042
189	0x3ab9595d	0.0014141012
190	0xbc18d855	-0.009328921
191	0x3e16f3ff	0.14741515
192	0xbd5ceebc	-0.053938612
193	0xbe1ae798	-0.15127409
194	0x3d988995	0.07448117
195	0x3da3d076	0.07998745
196	0x3cb4ce23	0.02207095
197	0x3db5591e	0.088548884
198	0x3be291ed	0.0069143684
199	0x3c155381	0.009114147
200	0x3d33d260	0.0439018
201	0x3b89481b	0.004189504
202	0x3d6393fe	0.05556106
203	0x3e343dbe	0.17601678
204	0xbd8b1be0	-0.06792426
205	0xbe3798c4	-0.17929369
206	0x3e0b74a6	0.13618717
207	0x3da0b737	0.078474455
208	0xbc124e10	-0.008929744
209	0x3d3c5821	0.045982484
210	0x3d67db2c	0.056605503
211	0x3e038b3d	0.12846084
212	0x3dfb9036	0.122833654
213	0xbe14b6ad	-0.1452281
214	0xbd52aef2	-0.051436372
215	0xbdcb04b6	-0.09913008
216	0x3dbcb90f	0.092149846
217	0xbe1fa26d	-0.15589304
218	0xbcd53f44	-0.026031144
219	0x3df5f52f	0.12009656
220	0xbd6cc943	-0.057809126
221	0xbdd5de79	-0.10442824
222	0xbe00244b	-0.12513845
223	0x3db8c102	0.09021188
224	0xbd3ce579	-0.04611728
225	0x3d49df2d	0.049285103
226	0x3d9a84b5	0.07544843
227	0x3d2cf98b	0.04223017
228	0xbe307f1b	-0.17235987
229	0xbcc61bba	-0.024183143
230	0xbbf27222	-0.0073988596
231	0x3cc40a3e	0.023930665
232	0xbe111d34	-0.14171296
233	0xbd6d8a88	-0.05799344
234	0xbcd232f9	-0.025659071
235	0x3d8edd14	0.06975761
236	0x3e19efe8	0.15032923
237	0x3d67126e	0.05641406
238	0x3d115318	0.035479635
239	0xbc988db2	-0.018622253
240	0x3cf71f53	0.030166304
241	0x3de97afa	0.11400409
242	0xbd897118	-0.06711024
243	0x3c72976b	0.014806609
244	0xbd18e3f6	-0.037326775
245	0x3c5194b7	0.012791804
246	0x3d92dbfe	0.071708664
247	0x3ce8a336	0.028398138
248	0x3d12da44	0.035852686
249	0x3d3b5f52	0.0457452
250	0xbb09133b	-0.0020916003
251	0xbe0ab2c5	-0.13544758
252	0x3e04c942	0.12967399
253	0xbb9e65ca	-0.0048339115
254	0xbe1099d6	-0.14121184
255	0xbc3a8ddd	-0.011386362

bias_ih_l1 f4 [64]
0	0x3d0d9a4a	0.03457097
1	0xbd18965e	-0.037252776
2	0xbdd1cd86	-0.102442786
3	0xbc97ef4c	-0.018546723
4	0xbdc7ca83	-0.09755423
5	0x3b5e87cc	0.0033955453
6	0xbcab53e6	-0.02091403
7	0xbd5a2402	-0.053256996
8	0x3df72d07	0.12069135
9	0xbc4bf99d	-0.012449649
10	0xbdb2f096	-0.087372944
11	0xbdb2502a	-0.08706696
12	0x3dcd5125	0.10025243
13	0xbd9cacc7	-0.07650142
14	0xbe034120	-0.12817812
15	0x3dc21ad4	0.09477773
16	0x3b5ce6d2	0.0033706916
17	0x3cb5767f	0.02215123
18	0xbd673820	-0.05645001
19	0xbcfe78c1	-0.03106344
20	0x3cb25905	0.021770963
21	0xbbc65744	-0.0060528833
22	0x3d52cd3b	0.051465254
23	0x3d4340cb	0.047669213
24	0xbd84944b	-0.06473597
25	0x3e1492c3	0.1450911
26	0x3d9ff027	0.07809477
27	0xbcd736e8	-0.026271299
28	0x3d69a15b	0.057038646
29	0x3d417651	0.047231976
30	0x3de1acef	0.110193126
31	0xbd2d36ad	-0.04228847
32	0xbc20f7b7	-0.009824685
33	0x3d5fb038	0.054611415
34	0x3d2ab69f	0.041678067
35	0xbdcd6068	-0.10028154
36	0xbd78785d	-0.060661662
37	0x3d864cf5	0.06557647
38	0xbe066501	-0.13124467
39	0xbe2eaf9c	-0.17059177
40	0x3dfd0c1d	0.12355826
41	0xbe0f58cf	-0.13998722
42	0x3e1c3dc8	0.15257943
43	0xbe20b9a3	-0.15695815
44	0xbe1d4d9c	-0.15361637
45	0x3de85fae	0.113463745
46	0x3d3eff97	0.04663047
47	0xbbd21654	-0.006411353
48	0x3dc107f7	0.09425347
49	0xbdf5684b	-0.11982783
50	0xbde3add6	-0.11117141
51	0xbd9349dc	-0.07191822
52	0xbcf768df	-0.030201374
53	0xbe1cdbb7	-0.1531819
54	0x3da25ef7	0.07928269
55	0xbc0dd932	-0.00865774
56	0x3d7cf71b	0.061759096
57	0xbdcedcaa	-0.10100682
58	0xbd91c7e6	-0.07118206
59	0x3e0aa483	0.13539319
60	0xbc1e1142	-0.009647669
61	0x3c46fd9a	0.012145424
62	0x3db6d9f7	0.08928292
63	0xbe1b7f72	-0.15185335

bias_hh_l1 f4 [64]
0	0x3df17dba	0.117915586
1	0x3e15b610	0.14620233
2	0xbc2af564	-0.010434482
3	0x3d6b4f26	0.05744853
4	0xbdd97393	-0.10617747
5	0xbdfbad0d	-0.12288866
6	0xbe0e4206	-0.13892373
7	0x3d08bee2	0.033385165
8	0x3d23e2f3	0.040011358
9	0xbce928bf	-0.028461812
10	0xbdadfec3	-0.084958576
11	0xbda689ba	-0.08131738
12	0x3e2f87a0	0.1714158
13	0x3d1af3e2	0.03783024
14	0x3d8185ca	0.06324346
15	0x3d677b6f	0.0565142
16	0x3dafb11b	0.08578702
17	0x3df176c4	0.11790231
18	0xbd727368	-0.05919209
19	0xbdccf8a5	-0.10008363
20	0xbe0739d0	-0.13205647
21	0x3e245a0c	0.16049975
22	0x3db3c772	0.087782755
23	0xbc077204	-0.00826693
24	0xbe07b64f	-0.13253139
25	0x3de86d58	0.11348981
26	0x3d996fa4	0.07491997
27	0xbde46821	-0.111526735
28	0xbcf40d17	-0.029791398
29	0xbc7c09b1	-0.01538317
30	0x3d968c05	0.07350925
31	0xbe1e6f30	-0.15472102
32	0xbd5220ef	-0.05130094
33	0x3ce020f2	0.02735946
34	0x3ca4597f	0.020062206
35	0xbd2798af	-0.040917095
36	0x3d612dcb	0.054975312
37	0x3d7d601b	0.06185923
38	0x3b413fdc	0.0029487526
39	0x3d569174	0.05238481
40	0x3d92ca8a	0.071675375
41	0x3d046ed2	0.03233225
42	0x3dee40bf	0.11633443
43	0xbe0e187e	-0.1387653
44	0xbdf2cc94	-0.118554264
45	0x3de1bec8	0.11022717
46	0x3d7e1254	0.062029198
47	0xbcc54a0f	-0.024083165
48	0x3dab825a	0.08374472
49	0xbe1be724	-0.15224892
50	0xbdb5d46b	-0.08878406
51	0x3de457e8	0.11149579
52	0x3cfa2217	0.030533833
53	0xbe056acd	-0.13029023
54	0x3d0b1922	0.033959515
55	0x3d5eb21a	0.05436907
56	0x3cb9a55d	0.02266186
57	0xbe28ff7e	-0.16503713
58	0xbdb3798e	-0.08763419
59	0x3d6d18a5	0.05788483
60	0xbdd2fa16	-0.10301606
61	0xbcde941e	-0.027170237
62	0xbd254e84	-0.04035808
63	0x3d3e60f9	0.0464792

weight f4 [1, 64]
0	0x3fc5b523	1.5445904
1	0x3fc35c4c	1.5262542
2	0xbfbc9622	-1.4733317
3	0xbfc9375a	-1.5720017
4	0xbfc1fab7	-1.5154637
5	0xbfba86c8	-1.4572382
6	0xbfc95fb6	-1.5732334
7	0x3fc5cbfd	1.5452877
8	0x3fbe4e33	1.4867615
9	0x3fc75529	1.5572864
10	0xbfc9a95f	-1.5754813
11	0xbfc25010	-1.5180683
12	0x3fbe59ff	1.4871215
13	0x3fbaf7a0	1.4606819
14	0xbfc28f34	-1.5199952
15	0x3fc53259	1.540599
16	0x3fc17fcf	1.5117129
17	0x3fba839d	1.4571415
18	0x3fc6e8b6	1.5539768
19	0xbfcb77a2	-1.5895884
20	0xbfc84fb7	-1.5649327
21	0x3fbe889f	1.4885443
22	0x3fc8611e	1.5654638
23	0x3fc279e1	1.5193444
24	0xbfc35283	-1.5259556
25	0x3fc5217e	1.5400846
26	0x3fc1c43a	1.5138009
27	0xbfbb353d	-1.4625622
28	0x3fc1dc87	1.5145425
29	0x3fbdd088	1.4829264
30	0x3fb90061	1.4453241
31	0xbfbf91b7	-1.4966344
32	0xbfc2ebc6	-1.5228202
33	0xbfc590d2	-1.5434821
34	0xbfbd9955	-1.4812418
35	0xbfc17016	-1.5112331
36	0x3fc19b3f	1.5125502
37	0x3fbdf9d7	1.484187
38	0xbfc975f6	-1.5739124
39	0xbfc4ecc7	-1.5384759
40	0x3fc54b3c	1.5413585
41	0xbfc176db	-1.5114397
42	0x3fbe24fa	1.4855034
43	0xbfc3f474	-1.5308976
44	0xbfbc6ed2	-1.472132
45	0x3fc28258	1.5196028
46	0x3fbe51ee	1.4868753
47	0x3fc2f08e	1.5229661
48	0x3fb9bde4	1.4511075
49	0xbfc7230b	-1.5557569
50	0xbfbb1896	-1.4616878
51	0x3fc5a783	1.5441746
52	0x3fbdbb4d	1.4822785
53	0xbfb5c48d	-1.4200608
54	0xbfbb9644	-1.4655232
55	0x3fc97b8d	1.574083
56	0x3fc2458f	1.5177478
57	0xbfbdc023	-1.482426
58	0xbfc1ce30	-1.5141048
59	0x3fc866cc	1.5656371
60	0xbfc2bf33	-1.5214599
61	0xbfc5d0cb	-1.5454344
62	0x3fc055ef	1.5026225
63	0xbfc52b10	-1.5403767
