mlartifacts/635037021632314375/8917a4866de84e728f325371df570b8e/artifacts/best_model/data/model.pth (torch, 57372 bytes, 9 tensors)

weight_ih_l0 f4 [64, 1]
00000000: bf63 003e 6ff6 113e 0f98 8cbd 287a cf3d
00000010: e75a a53b 718d 263d 28b8 89bd 18bf 333d
00000020: 64c4 1d3e ef55 05be 2f93 b33d 9104 8b3d
00000030: 77d1 033e cb19 d93c 905b a63d 59c7 38bd
00000040: 2071 963d 9c3f 783d 1406 a6bd a8e9 413c
00000050: c7e8 cabd f9b2 46bd 876e 8fbd 3359 093e
00000060: b003 ccbd 51e3 b4bd ec83 bebb 7906 e9bd
00000070: 04dd 2e3c 6f11 21be 6574 163e 8f88 0cbe
00000080: 6f3f c53d 0014 18bb 4475 99bd d782 4f3d
00000090: 5c1f 2ebc 03cd 143e 0c66 95bc 47df 5dbd
000000a0: 1374 823d 4a5f a7bd 650d b73d 6ad3 ff3d
000000b0: 913b 503d f830 f9bc 094c 9d3d 8de1 14bc
000000c0: de3b 393d f5ab d8bd 1885 1bbe b375 c1bd
000000d0: d2e3 dcbd 836d c23d a9cf 883d 91cc a53d
000000e0: 40c9 403d 159c fa3c e34b ca3d 8c80 e7bd
000000f0: aac2 e6bc 5297 debd a0a8 2b3d fea6 9fbd
0.1253805 0.14254163 -0.068649404 0.10130721 0.005046237 0.040662233 -0.06724578 0.043883413
0.15406948 -0.13021062 0.087683074 0.0678798 0.12872873 0.026501557 0.08122933 -0.045111988
0.07345796 0.060607538 -0.08106628 0.011835493 -0.0990768 -0.048510525 -0.07003503 0.13412933
-0.09961641 -0.0883242 -0.005814066 -0.11378188 0.010672811 -0.15729307 0.14692838 -0.13723968
0.096312396 -0.002320528 -0.0749307 0.050661888 -0.010627594 0.14531331 -0.018237136 -0.054168012
0.06369796 -0.08172472 0.08938102 0.12491496 0.050838057 -0.030418858 0.07680518 -0.009086979
0.04522311 -0.10579673 -0.1518749 -0.094462775 -0.10785641 0.09493544 0.06680233 0.080956586
0.047066927 0.030592004 0.098777555 -0.11303815 -0.028168995 -0.10868706 0.04190886 -0.07795523

weight_hh_l0 f4 [64, 64]
00000000: 4340 173d 8b20 45bc dccc b03d 1301 43bd
00000010: 95e8 b6bd 89db 92bd dfc4 af3d 3896 603d
00000020: 9467 ef3d 2ba1 04be fc24 e9bd f57b b4bd
00000030: 7de2 71bd bb9f 773d d5f4 8d3d a2ca bf3d
00000040: 15e0 49bd b6cb c7bd 9a5d 963d 294a 7abd
00000050: 596c a13d 1060 a5bc 32c5 6d3d 03ec 91bd
00000060: c40b a7bd def3 3a3d fb6a 643c 86d1 bfbc
00000070: bce3 b43d 3329 ae3d 6f79 c5bd ccda 85bd
00000080: 1a68 e93d 91fe 52bd 30b1 34bd 4b46 04be
00000090: 72ad 77bd e597 103d d7af 96bb b7c1 b1bd
000000a0: ed0b a63c c7af d9bd 6195 d8bd 7049 3dbd
000000b0: 4fae bfbd 6169 bfbd 3eb7 fb3d e070 00bb
000000c0: 0241 673d 27ad dabd 242b 9fbd ceef 09bd
000000d0: b894 083b 0367 e4bd c664 81bd 16c0 b2bd
000000e0: 6878 04bc f68b edbc 3d5d 7ebc e9e1 d7bd
000000f0: fbe4 96bd 6e44 77bd 54f9 47bd 91e8 febd
00000100: ae55 f03d 6f9d eeba c90f d83d 4766 663d
00000110: c131 d9bd 4842 c33d 8f72 37bd cf2c 45bd
00000120: 4623 c0bd 5f66 22be 121d 653d f8e2 1ebc
00000130: d449 6e3d c2b3 d9bd d965 de3d 04d0 b6bd
00000140: 273f 8ebc b4a8 e73c 08c9 6e3d 92a5 d63d
00000150: ed6c d53d a2a2 d2bd 1889 043d 24f3 08bd
00000160: 135a a2bc 2e40 ccbd bd0f ed3d e283 c5bd
00000170: 7896 8e3d b084 003d 3176 443d 4ed2 a0bd
00000180: 38e8 013e 5929 0e3d 38a2 9e3b 3d0a d5bd
00000190: c919 4c3d 459e 4fbc 6b41 70bd 13f0 e33d
000001a0: 7960 0e3d 870f c3bd 5ffb 54bd 3d2a aa3c
000001b0: 1824 933d 599b 02bd cb15 7abd 11c0 49bd
000001c0: 5367 b9bd 8af9 283d 5894 b33d badf febd
000001d0: 45aa cf3c 4e16 9f3d 19ef d33c fc04 30bd
000001e0: 8a82 913d b0db 863d c5f7 5c3d 063e 32bd
000001f0: 6e74 0fbd 40ee 273c 58f9 f1bc 4b9b 3cbd
00000200: 52ea 893d 5632 a23d 79ef 21bc a2c5 4abd
00000210: 71c1 603b fda9 88bc 0de1 3b3d d390 0f3d
00000220: 13f0 febd c5b4 80bc 7bd9 a83d 476d e23c
00000230: 8deb 96bc b33e 91bd 7fc6 b8bd 8a32 eebd
00000240: 2a93 3cbd 17c1 2b3d efd5 b13d 3706 5c3d
00000250: 50ff ccbd 50ae 91bd 358e a1bc 0623 cd3d
00000260: afc7 de3c 4ac0 dbbc a2f5 4c3d e643 2ebd
00000270: a29b acbd 8481 d83d dfad 85bd 046d 4cbc
00000280: cf72 0ebe ed83 9b3d 0b82 de3d ff8e 1f3d
00000290: 0395 acbd 7a95 04be 6bb8 cdbd 0100 ba3d
000002a0: 1c76 483d 165c 043e aebd 4f3d 543d 44ba
000002b0: a785 8abb 39eb c1bd 4ec5 f2bd dc8c d5bd
000002c0: 0182 3c3d ad58 6cbd 9a2c 73bc 222d 85bd
000002d0: 90e8 8cbc 7582 cfbd 593c afbd 1b7a 253d
000002e0: 883b 30bd c904 923d 7013 42bd d1a9 91bd
000002f0: ac37 abbc e682 71bd c3dc 03bd ca36 ddbd
00000300: e8b9 7c3d dc3f d2bd e42a 7b3d 6dcf 483d
00000310: a69f b03d 787d dcbd 718b c03d 0deb 63bd
00000320: 2954 1a3d 5488 0a3e e3a5 ecbc 7def 96bc
00000330: 6a02 f6bc 3785 cbbd 37fa 353d 7b70 0cbe
00000340: 40ad a13d 7e4a b33d 517c fc3d f75a 0dbd
00000350: 79fa c2bd 1126 063d bc4b 853d 83d1 0abe
00000360: 9d0f edbc aabf 8dbd 93f2 77bc 7ffd 68bd
00000370: 3b4b 51bd 8654 f6bc 2f61 febd 05a7 e03d
00000380: d3e2 bf3d 5235 ddbc e245 ebbb 9c9a 62bd
00000390: 438b ddbd 4d87 f6bd 05f6 4d3d 688e 98bd
000003a0: 81b4 a5bd d7c0 3d3c 31d3 4bbd 1bae 6cbd
000003b0: 00e0 bd3b b704 efbc 34b4 53bd a835 5fbd
000003c0: f943 cabd c8de de3d 136a 30bd 832c 213d
000003d0: 2670 37bd f713 59ba 83e1 e83d 831a 603d
000003e0: c142 e9bd 1f5e 513d ec6b e43d 6c1d 4b3d
000003f0: b796 b43d e4cf fc3d c49d d2bb 8f40 ef3c
0.03692652 -0.012031685 0.08632824 -0.047608446 -0.0893108 -0.07170779 0.08582472 0.05483076
0.11689678 -0.12952106 -0.11384007 -0.088127054 -0.059053887 0.060455065 0.06931464 0.09364821
-0.049285967 -0.09755652 0.07342072 -0.06110588 0.07881994 -0.020187408 0.05804939 -0.07125094
-0.08156541 0.045642726 0.013941522 -0.023415338 0.088324994 0.08503952 -0.09642302 -0.06535873
0.11396809 -0.051512305 -0.04411429 -0.1291744 -0.060468145 0.035301108 -0.0045985985 -0.08679526
0.020269359 -0.1062923 -0.10575367 -0.046212614 -0.093594186 -0.09346271 0.1229081 -0.0019598529
0.05645848 -0.106775574 -0.077719 -0.03367596 0.0020840596 -0.111524604 -0.06318049 -0.08728044
-0.008085348 -0.028997403 -0.015525159 -0.10541136 -0.07367893 -0.060367994 -0.048821762 -0.12446702
0.11735092 -0.0018204878 0.10549886 0.056249883 -0.10605193 0.095341265 -0.044786986 -0.048138436
-0.09381728 -0.15859364 0.055935927 -0.009697668 0.058175877 -0.10629989 0.1085927 -0.089263946
-0.017364098 0.028278686 0.058297187 0.10480799 0.104211666 -0.10284926 0.032357305 -0.033435002
-0.019818341 -0.09973179 0.115752675 -0.09644295 0.069622934 0.03137654 0.04796428 -0.078526124
0.1268624 0.0347074 0.0048411153 -0.104023434 0.04982928 -0.012672012 -0.058656137 0.11129775
0.034759972 -0.09524446 -0.05199754 0.020772094 0.07184619 -0.031886432 -0.06105594 -0.049255434
-0.09052911 0.041253604 0.08768529 -0.12445016 0.025349746 0.07767926 0.025870847 -0.042973503
0.071049765 0.06584871 0.05394723 -0.04351618 -0.035023145 0.010249674 -0.029537842 -0.046046536
0.06734146 0.07919757 -0.009883755 -0.049504884 0.0034294988 -0.01668262 0.045868922 0.035050225
-0.12448134 -0.015711198 0.08244606 0.027639998 -0.018422866 -0.07092037 -0.09022235 -0.11630733
-0.046038784 0.04193219 0.08683383 0.053716864 -0.100096345 -0.071133256 -0.01972113 0.10016446
0.027194826 -0.026825089 0.05003894 -0.04254522 -0.08428122 0.10571578 -0.06527304 -0.012477163
-0.13910984 0.07593522 0.108646475 0.03895473 -0.08426859 -0.12947646 -0.100449406 0.09082032
0.048940763 0.12925753 0.050718002 -0.0007485945 -0.0042273584 -0.09468693 -0.11854039 -0.104272574
0.04602242 -0.057701755 -0.014842177 -0.06502749 -0.017200738 -0.101323046 -0.08556432 0.040399652
-0.043025523 0.07129819 -0.04738182 -0.07112468 -0.02090057 -0.058962725 -0.032192957 -0.10801466
0.06170073 -0.102660865 0.0613202 0.04902594 0.086242005 -0.10766119 0.09401596 -0.055644084
0.037677918 0.13528568 -0.028887695 -0.018424744 -0.030030448 -0.09937518 0.044428077 -0.13714783
0.07894373 0.08754443 0.12328399 -0.03451058 -0.0952043 0.032751147 0.06508586 -0.13556485
-0.028938109 -0.06921323 -0.015133518 -0.056882378 -0.051097136 -0.0300696 -0.1242088 0.109693564
0.09369435 -0.027002964 -0.0071799615 -0.05532323 -0.10817578 -0.12037525 0.05028345 -0.07449037
-0.08091069 0.011581621 -0.049761955 -0.057783227 0.005794525 -0.029177053 -0.051685527 -0.05449453
-0.09876246 0.10882336 -0.04306991 0.03934909 -0.044784687 -0.0008280868 0.11371138 0.054712784
-0.113896854 0.05111515 0.11153397 0.049588606 0.08817809 0.123443395 -0.0064274985 0.029205589

bias_ih_l0 f4 [64]
00000000: 852c d03d c5c2 3ebc 227b 3a3d 6143 d3bd
00000010: cb7f 893d dceb df3d 746f 5c3d d916 5abd
00000020: ab43 ca3d c1cf e1bd b84d babc cb19 0fbd
00000030: b2ad f0bd 6377 80bd 8d9e d7bd 7ebb 0d3d
00000040: e4be 1cbc 47dd 7a3d 6769 a8bc 1aea af3d
00000050: 910d 0a3c bd5c d53d 1d21 b43d 35fb c2bd
00000060: 98e5 afbd 3113 aa3d 89f4 f13d 905b d6bd
00000070: c73f ccbb 504a 46bd 261c ee3d 023e d03d
00000080: a6f2 9e3d f969 813d 10f7 4dbc 73d1 ce3d
00000090: 05e7 89bd ddf0 083c d4f4 06bd 44fa c6bd
000000a0: 3e81 6bbd 4844 e93c 2368 6abb 1ee7 c4bd
000000b0: efa6 2fbc 2d42 f33c 2059 d6bd 2f27 803d
000000c0: 9fe4 c2bd fd45 253b 365c c3bd 8851 dabd
000000d0: bdd0 fcbc 2ef3 d23d 5035 f93d 8457 183d
000000e0: c62e a43d 6011 77bd ce6f 553d ca4b b63d
000000f0: 9f18 f3bd 96bc b6bd 0c3b 893d 686d 633b
0.101647414 -0.011643116 0.045527585 -0.10315586 0.06713828 0.109336585 0.053817227 -0.053244445
0.09876188 -0.11025954 -0.022742137 -0.034936707 -0.1175188 -0.06272771 -0.10528288 0.034602635
-0.009566996 0.061246183 -0.020558072 0.08589573 0.008426086 0.10418079 0.08795378 -0.0952057
-0.085887134 0.08304442 0.118142195 -0.10466683 -0.006233189 -0.048410714 0.11626463 0.10168077
0.07761125 0.06319041 -0.012571111 0.10098543 -0.067335166 0.0083582075 -0.03294833 -0.09715703
-0.0574963 0.028474942 -0.0035767637 -0.096143946 -0.010720952 0.029694641 -0.10466218 0.06257474
-0.09516262 0.0025218718 -0.09539072 -0.10660082 -0.030861253 0.10300289 0.12168372 0.037192836
0.08016734 -0.060319304 0.05210858 0.08901174 -0.118699305 -0.08922689 0.067007154 0.0034702662

bias_hh_l0 f4 [64]
00000000: f9fe c5bd d3ec c4bd 39c3 b33d cb2e 203c
00000010: 95c7 8439 e416 06be f784 c93d ed0e b1bd
00000020: a239 573d ed47 e2bb 1f78 70bb 5f28 6b3d
00000030: 6c17 d6bc 3afa d8bc 4bfa ae3d 4f1b c2bd
00000040: 113f 673d 03d5 e8bc e91a 0cbd b21d 883d
00000050: 61d5 7b3c cb2f edbd 3503 c93d f4d0 51bd
00000060: 6655 d93d f1ed 00bd 1bb4 f93d 6353 1f3d
00000070: 9908 67bc 4800 423d c7d8 adbb 1865 83bd
00000080: 2a54 613d 23b2 9d3d 4237 87bc 5965 d33d
00000090: 0ebe 6cba edeb 82bd 80a0 8bbd 2805 a03d
000000a0: 9a47 48bd 32f0 9d3d 5929 e9bd 40f9 13bc
000000b0: 0b4b a6bd 89d2 563d 7caa ac3d a791 143d
000000c0: b087 02bd d470 edbd 5b7a 56bd 6276 8abd
000000d0: 610e d53d f407 9fbd d95d 543d 95ab bd3d
000000e0: 7833 e83c ad3b d0bd 0afa 04bd f18b c7bc
000000f0: c581 a63d 1e1f a9bb 4a14 d23b 7d2e d33d
-0.09667773 -0.09615483 0.0877747 0.009776781 0.00025325702 -0.1309467 0.09839814 -0.08645425
0.052545197 -0.006905547 -0.0036692692 0.057411548 -0.026134215 -0.026486505 0.08543833 -0.09477865
0.05645663 -0.028421884 -0.03420535 0.06646289 0.015370698 -0.115813814 0.09815065 -0.051224664
0.106119916 -0.03147692 0.121925555 0.038897883 -0.014101171 0.04736355 -0.005305383 -0.064157665
0.055011906 0.076999925 -0.016505841 0.10322065 -0.0009031006 -0.063926555 -0.06817722 0.078134835
-0.04889641 0.07711829 -0.113848396 -0.009031594 -0.08119782 0.052446876 0.08430955 0.036271717
-0.031867683 -0.11593786 -0.05236278 -0.06760861 0.10403133 -0.07765189 0.051847313 0.09261242
0.028344855 -0.10167632 -0.03246502 -0.024358721 0.0813022 -0.00516118 0.00641111 0.10311601

weight_ih_l1 f4 [64, 64]
00000000: 6bee 443d 7002 b93d 98f4 22bd ac14 cb3d
00000010: 8bb1 b83c cd10 23bc 6b31 6c3c 388e d4bd
00000020: b145 b13c 5570 9d3c 1181 c7bd 2716 1fbd
00000030: 1a20 b03d 63bb 6cbb d6eb 863c 0084 8c3c
00000040: 1a9a 6bbd 74f4 e73d 30d7 bbbc 0963 1abd
00000050: ab4f 433d 2917 e8bd c730 9bbc 8314 253d
00000060: 1d4f 28bd c00d 633d 78d0 ccbd b7c2 3dbd
00000070: a44c 59bd 7a21 c53d a679 7f3d d428 dfbd
00000080: 8a58 883d c897 c03b 1275 c73d 0421 9f3d
00000090: df67 a5bd 5020 fb3d 8580 f2bc 1954 e5bc
000000a0: 00c9 4c3d 2694 b53d 03c9 633d e37f bbbd
000000b0: d8a0 2dbd 7970 f73d 124c f6bc 0ba2 8fbd
000000c0: 1b69 d1bd 1496 9ebd a05d a9bd 6135 953c
000000d0: ccac 4a3d c342 0d3e d5ae b83d 0593 053c
000000e0: b80c 9e3d b584 993d 5bc8 c4bd 9a57 293d
000000f0: 928d c0bd a42c b83d 27ac 75bd 8827 743c
00000100: db54 9e3c fb23 c13d b937 913c e079 93bd
00000110: 3cee 613d 2f87 bb3d 7d18 9bbd 6675 b0bd
00000120: c326 88bd 2a4b ddbd 3248 8e3b 3099 2c3d
00000130: 1030 213c c4eb 1cbd c6ec da3d 2e0e fb3b
00000140: 153e 97bd 30e7 b2bc d5b5 acbd 1c96 16bd
00000150: 0382 0ebe 2f05 483c 29b7 bfbd 2d77 ab3d
00000160: bc6f a83d 1512 dbbd e7a9 73bd 2c89 e0bd
00000170: 842d 0a3d 92ba 4c3b d917 52bd 849c 6f3d
00000180: 16ff 903d e6dc d8bd ca49 cdbc 8968 3bbd
00000190: 550c f0bc eb47 ad3d 8703 acbc 4aff b0bd
000001a0: c17a d43d a069 24be 2275 c1bc af1d a33d
000001b0: 8a22 de3d 4a7e 003e 4ffb 77bc 0c77 f33c
000001c0: bdd6 e5bd 7eb3 06bd 7f48 5dbd b579 be3c
000001d0: 5307 abbd c364 403d fad4 953d e80c d53d
000001e0: 352d 37bc 4335 f63d a88c d9bd 0d85 78bd
000001f0: 5601 1b3d 877d c93c 4d43 5b3d e24e cbbd
00000200: 6be9 7d3d 97f4 15be bca1 abbd 7e78 cbbc
00000210: 85c0 fcbd ed38 07be 963c c5bd 1bf9 d33d
00000220: 724f 603c f3dd 2d3a 31fa c6bc 5551 0bbe
00000230: ab8e 03be 73f6 a9bd 4746 10be 01c9 9f3d
00000240: 4efb 32bd 396b 26bd 03cc ccbd 64af 7c3c
00000250: 6fd0 96bb 0c2f a1bd 6e18 a13d fdc5 9c3d
00000260: 85e6 aebd 58fa a33d 2806 c8bc f382 c53b
00000270: cdb3 543d 394f dbbb ea7c c63d 4b77 b73d
00000280: 3c81 c7bd e169 aabd 4844 e2bd 3e88 0b3d
00000290: 1bd7 b5bd f2d7 e7bd e7b7 9abd 621f 00be
000002a0: ccdf e8bd 76f4 133e eb5b 623d b226 a43d
000002b0: be9e 77bd cedf 59bd 310c 65bd bc9a 9a3c
000002c0: 995c b7bd 4610 c43c cbff 8cbd 195a ea3c
000002d0: bddb f03d 1919 993b e900 b03d 788e bdbd
000002e0: cd62 cabc a787 acbd 6e7c bdbc 9eb5 d3bc
000002f0: a5f5 85bd 74e9 f0bd 1d75 22bd 77b2 013d
00000300: d066 2ebd cf39 1dbe 521f c43d 2ab7 943d
00000310: 2c31 a2bd 52c7 a4bb 0712 c43d 7402 e9bd
00000320: 6707 04be 4db6 ea3d 5454 bbbc 3f46 ef3b
00000330: a5eb 81bd 4ad9 e53c 39b4 6a3d 17f8 07bd
00000340: 8e8c 1fbd e4e4 04be 816c 0bbc 9667 933d
00000350: 209d c8bd a0a8 21b9 5162 b43d 25c7 8dbd
00000360: 02db 2ebd 9f54 c3bc ac94 68bd 271b d13c
00000370: 3169 f7bd a99f 8d3d 0522 36bd 27f9 b83a
00000380: 20a4 e3bc 282b 803d 0101 72bd deeb f8bd
00000390: 029c a9bd 1424 d6bd f0f9 5bbd 229f c93d
000003a0: 2dae e8bd 378e 06bd 4f1e fabd 9a3f c4bd
000003b0: 7a37 00bb 39b0 a3bd b0e3 5fbc a101 673d
000003c0: e91e a0bc 6e3b 7f3d c621 333d e698 073e
000003d0: 5c84 88bb 06cd b43d 4304 af3d 826c 5c3d
000003e0: 2b07 7a3d 1ed9 babd 3447 c4bd 005e a03d
000003f0: 79d0 5d3d 30a8 f23d 8682 2abc c1b8 e2bb
0.048078936 0.09033668 -0.039784044 0.09916052 0.022545597 -0.009952736 0.014416079 -0.103786886
0.021639677 0.019218603 -0.09741414 -0.038839485 0.08599873 -0.0036122433 0.016469877 0.017152786
-0.05752001 0.113259226 -0.022929758 -0.037692104 0.0476834 -0.113325424 -0.018944157 0.040302765
-0.041091073 0.055433035 -0.100007 -0.046328273 -0.053051606 0.09625526 0.062371872 -0.10896459
0.066575125 0.0058774687 0.09739126 0.07769969 -0.080764525 0.122620225 -0.029602299 -0.027994202
0.049996376 0.08866148 0.05561162 -0.09155252 -0.04238972 0.12081999 -0.03006557 -0.07013329
-0.102251254 -0.07743469 -0.08269811 0.01821393 0.0494812 0.13794999 0.090177216 0.008152728
0.0771727 0.07496015 -0.09608527 0.04134331 -0.094020024 0.089928895 -0.05997863 0.014902003
0.019327572 0.09430691 0.017726766 -0.0720098 0.05515884 0.091566436 -0.0757303 -0.08616142
-0.06648018 -0.10805352 0.0043421024 0.04213828 0.009838119 -0.03831078 0.10689692 0.0076616025
-0.07384888 -0.021838754 -0.08433119 -0.03676425 -0.13916783 0.012208267 -0.09361107 0.0837234
0.08224437 -0.10696808 -0.059488203 -0.109636635 0.033734813 0.0031239134 -0.051292274 0.058498874
0.07079904 -0.10589008 -0.0250596 -0.04575399 -0.029302755 0.08460983 -0.020997776 -0.086424425
0.10374976 -0.16055918 -0.023615424 0.07964646 0.108464316 0.12548175 -0.0151356 0.029719852
-0.11222599 -0.03288602 -0.054024216 0.023251394 -0.08351006 0.046971094 0.07316013 0.10402852
-0.011180212 0.120218776 -0.10622531 -0.060673762 0.03784307 0.024595989 0.05353098 -0.09927155
0.061990183 -0.14644085 -0.08380458 -0.024837729 -0.12341408 -0.13205309 -0.096306965 0.103502475
0.013690816 0.0006632499 -0.024289222 -0.13605244 -0.12847392 -0.082989596 -0.14089309 0.0780201
-0.043696694 -0.0406296 -0.0999985 0.015422676 -0.004602484 -0.078703016 0.07865988 0.07654951
-0.08540062 0.08006734 -0.024416998 0.0060275733 0.051929284 -0.0066927937 0.09691794 0.089583
-0.097414464 -0.08320976 -0.1104818 0.034065478 -0.08878919 -0.11320485 -0.07554608 -0.12511972
-0.11370811 0.14448723 0.05526344 0.08015193 -0.060454123 -0.053191952 -0.05591983 0.018872611
-0.089532085 0.023933541 -0.06884726 0.028607415 0.11760662 0.0046721813 0.085939236 -0.092556894
-0.024705315 -0.08424311 -0.023130622 -0.025843438 -0.065409936 -0.11763278 -0.03966247 0.031664338
-0.04257852 -0.15354083 0.095762864 0.07261498 -0.07919535 -0.0050286436 0.09573751 -0.11377421
-0.12893449 0.11460552 -0.02286736 0.007302075 -0.06343774 0.028057713 0.05730078 -0.03319558
-0.038952403 -0.1297794 -0.008509756 0.07197492 -0.09795594 -0.00015416974 0.08807815 -0.069227494
-0.04268933 -0.023844061 -0.05678241 0.025525643 -0.120806105 0.069152184 -0.044466037 0.0014112339
-0.027788222 0.062582314 -0.05908299 -0.12154363 -0.08281709 -0.104561 -0.053705156 0.09844805
-0.113613464 -0.03285047 -0.12212812 -0.095824435 -0.0019564317 -0.07992596 -0.013665125 0.056398038
-0.01954599 0.062312536 0.04373338 0.1324192 -0.004166169 0.088281676 0.08545735 0.05381442
0.061041992 -0.09123443 -0.095838934 0.07830429 0.054153893 0.118484855 -0.010407096 -0.006918997

weight_hh_l1 f4 [64, 64]
00000000: b1b1 013e dc17 163d a57b de3d 7fa2 153d
00000010: c46d dd3b ebe5 733d 7680 aa3d 3540 b4bc
00000020: a6ab d33c 7287 2cbc 296c a53d 5b54 623d
00000030: bd51 f9bc 8929 f43d fb0c 043e 76c3 d43d
00000040: 7667 153c 2bfb 303c 3ecd 8cbd 575e cb3d
00000050: 89d0 c3bd 9ab3 c8bd 502c 233d 8579 e5bd
00000060: 54ef 3c3d d494 55bd 839e 9abc f353 3fbd
00000070: 92ab b43d 06af b5bd a64d f53c 0c34 bab9
00000080: 1ad5 dbbd d95e d03d b9ac 073d 2665 b5bd
00000090: 0a49 f9bd ec22 6e3d cfd3 d03d 8107 99bc
000000a0: 48b7 06bd d6bc d4bd 0616 c83d ab8e 59bd
000000b0: 777c 84bd 1f70 203d a270 e73d 9fcc 5b3d
000000c0: 4600 2f3d 30b7 dd3d d90f 30bc cc06 453c
000000d0: fd76 03bc 9614 afbd e9a7 d23c fed4 77bd
000000e0: 1d52 993d 72d4 bdbd 431f dcbd 30ed a7bc
000000f0: 0447 cc3d 2049 c2bd 365b 33bd 3681 17bc
00000100: 5055 4fbd e232 7c3d f710 d93d dfc9 6f3d
00000110: d8ba b5bc b356 d8bd 92e4 bbbd a736 27bd
00000120: 038e 04bd 9c00 ccbd 3247 d43c 8cc3 47bd
00000130: 5467 db3c 98d6 81bd c081 0dbb a137 12bd
00000140: 7b94 803d c17b e3bd 2b3e 52bd 8af6 0e3d
00000150: 4931 28bd 05c0 1d3c b006 b13d e0c4 b83c
00000160: 7210 b43c b9fd 353d 1c7c afbd cc03 45bd
00000170: 6f7f 463d 6d52 b33c 020a b53d c74e 92bc
00000180: ed5a 043e 8465 a03d 1416 e1bc 79a3 51bd
00000190: 3696 e33c f484 cfbd 7713 6cbd 07d1 433d
000001a0: 7ac6 743c 605f 743d a73b 1ebd 1b93 cb3d
000001b0: db8b 9bbd 43e7 94bd c42f b33d 9a77 dcbc
000001c0: d7e3 393d c8d5 c6bc 6fbc d8bd e3a7 25bc
000001d0: b58f 6b3d 2236 9e3d ec13 c93d 3c46 ee39
000001e0: f98b c23d 3eec eb3c 558a a3ba 2bf2 d33b
000001f0: 2a13 b4bb 52a8 013d 12a4 1ebc e6dd a33d
00000200: be61 abbc 51ee 8ebd 1436 153d 74f8 82bd
00000210: aaca 9a3d 5988 db3d e7fa 873b f2fc 33bc
00000220: c43f 1ebc 4533 7b3d 15f0 bebd b089 07bd
00000230: 6729 87bd 49b7 e7bd 905e c9bd e734 a5bd
00000240: 0ba1 df3d e661 9a3d 9df3 acbd 1cf3 dabd
00000250: 7da3 ec3d ae37 9c3c c2b4 693d 11c3 883c
00000260: 869d 57bd d35f 95bd 29b2 ae3d 261f fbbd
00000270: 12e0 bfbd 6cda 123d 2f76 18bd a265 c43c
00000280: 4dfe 603d 4d9e 97bd bf03 9ebd 188b b4bd
00000290: e92d e1bd d8e2 1bbc 8884 d73d f2d8 6dbc
000002a0: 45e7 873d 8d14 87bd 9763 88b8 895b b9bd
000002b0: f60f 77bb ba80 143d 39c1 62bd c46f ec3d
000002c0: 916b e53c e917 813d 9c8f 113e 9c05 6d3d
000002d0: 6778 72bc 028f 833d 1d27 fc3d fbc2 fabd
000002e0: ca27 d6bc 764f 843d 7841 e1bc 395a d3bd
000002f0: 6eb0 a2bd 406d 86bd daf6 563d 9459 9e3d
00000300: 2efb 91bc 9ea8 d6bd 62ef a73c fe58 363d
00000310: d674 52bd d1ae 4f3d 5a9a 83bd 6756 5e3d
00000320: bdc7 a83d a72f 873d f584 efbb f09d f83d
00000330: b42a 7cba 8090 e8bd 07fe a43d e903 eb3d
00000340: eaf3 903d baaa d83d 73b8 8c3d bd7b 2f3d
00000350: cd49 a03d fd86 dcbd ece3 5cbb f320 70bd
00000360: 495f e13c 345e f2bd 36db d53c 9170 403d
00000370: f626 0abd 1d8d 5dbd 56ec b3bd 14d4 123d
00000380: 8934 efbd c6a4 f0bc ad7f 0c39 ea13 bb3c
00000390: 6c5a e0bd 468f b73c e7b7 48bd d4d3 cabc
000003a0: 23e3 c2bd 08ed cfbd 4bc6 5c3b c4b4 d83c
000003b0: f0d7 e93d 51ab 013e 4b32 b33d 359d 4f3d
000003c0: 1013 9b3d 84a3 603d 923d cabd 888f c83d
000003d0: bccc 463c f023 c9bc b805 21bd 6d9c c33d
000003e0: ca9e a93d 4de6 b1bb 71e9 29bd dbe3 91bd
000003f0: 4a82 863d 2e61 96bd 0ee9 a4bd 494c 97bd
0.1266544 0.036643848 0.10863427 0.03653192 0.00675747 0.05954544 0.08325283 -0.022003273
0.025838684 -0.01053034 0.080772705 0.05525623 -0.030434484 0.11921985 0.12895577 0.10388844
0.009118905 0.010802071 -0.06875084 0.09930103 -0.09561259 -0.09799881 0.03983718 -0.11204819
0.04612668 -0.052143887 -0.018874412 -0.04671092 0.08821787 -0.08871274 0.029944252 -0.00035515463
-0.10734005 0.10174341 0.033123706 -0.08857183 -0.12172134 0.058138773 0.10196649 -0.018680336
-0.032889634 -0.1038758 0.09769826 -0.053114574 -0.06469052 0.039169427 0.1130078 0.05366194
0.04272487 0.10825956 -0.010745966 0.012025546 -0.0080239745 -0.08548848 0.025714831 -0.06050586
0.07486365 -0.09269036 -0.1074815 -0.020498842 0.09974483 -0.09486604 -0.043788157 -0.009247115
-0.05061847 0.061571963 0.10598939 0.05854213 -0.02218382 -0.105634116 -0.09174456 -0.040823605
-0.032361995 -0.09961054 0.025912855 -0.048770472 0.02678267 -0.06339759 -0.002159223 -0.035697583
0.062783204 -0.111075886 -0.05132882 0.034903087 -0.041062627 0.009628301 0.08643854 0.022554815
0.021980498 0.044431422 -0.08568594 -0.048099324 0.048461374 0.02188989 0.088397995 -0.01785983
0.1292531 0.078318626 -0.027476348 -0.05118129 0.027781587 -0.10132781 -0.05763575 0.047806766
0.014939899 0.05966127 -0.038631108 0.099401675 -0.07595035 -0.07270672 0.08749345 -0.0269125
0.0453833 -0.02427186 -0.10582816 -0.010110828 0.057510097 0.07725169 0.09818253 0.00045447226
0.09499354 0.028799172 -0.0012477139 0.0064680777 -0.0054954486 0.031654663 -0.009682672 0.08001308
-0.02092063 -0.06979049 0.036428526 -0.06395045 0.07558186 0.107193656 0.004149783 -0.0109856
-0.009658758 0.06132819 -0.09323136 -0.033090293 -0.06599694 -0.11314256 -0.098324895 -0.08066731
0.109193884 0.07538204 -0.08444903 -0.10690901 0.115546204 0.019069519 0.05705715 0.016694577
-0.05264046 -0.07293668 0.08530075 -0.122618005 -0.0936891 0.035852835 -0.037222084 0.023974244
0.05493002 -0.0740324 -0.07715558 -0.088155925 -0.10995085 -0.009514533 0.10523325 -0.014517056
0.06635908 -0.065957166 -6.5035354e-05 -0.09050662 -0.0037698722 0.036255576 -0.055360053 0.11544755
0.028005393 0.063033886 0.14214939 0.057866678 -0.014799214 0.06423761 0.12312148 -0.12244221
-0.02614202 0.064604685 -0.027497038 -0.10319943 -0.079438075 -0.065638065 0.05248151 0.077319294
-0.017819967 -0.1048138 0.020499889 0.044518463 -0.051380955 0.050703827 -0.064259246 0.05428162
0.08241222 0.06600886 -0.007309551 0.12139499 -0.00096194004 -0.11355686 0.08056264 0.11475355
0.07077773 0.105794385 0.068711184 0.042842615 0.078265764 -0.107679345 -0.0033705188 -0.058625173
0.027511256 -0.11834374 0.026105504 0.04698235 -0.033728562 -0.054089654 -0.08785312 0.035846785
-0.11679942 -0.029375445 0.00013399003 0.022836644 -0.109547466 0.022407185 -0.049003508 -0.02475921
-0.09515979 -0.10152632 0.0033687528 0.026453383 0.1141814 0.12663008 0.08749827 0.050687034
0.07571995 0.05484344 -0.09875025 0.097930014 0.012133773 -0.02455327 -0.039312094 0.0955132
0.0828224 -0.0054290653 -0.041482393 -0.07123538 0.065678194 -0.07342754 -0.08052264 -0.07387597

bias_ih_l1 f4 [64]
00000000: 7615 d0ba 65ab 9bbd 3d69 70bd 14aa 913c
00000010: db00 54bd aedb 233d 5693 143c 3db6 c2bd
00000020: 34d4 993d bbf1 35bd 93da 5abd 6334 4dbd
00000030: 8c82 5b3d b061 f0bd 9de1 c7bd edd8 6d3d
00000040: f7fe f4bc c896 abbc 1f26 cbbd 3b72 683b
00000050: c2bf 5c3d d374 4ebd 0a80 863c 997d 203c
00000060: 094f 19bd b945 db3d abee 2e3d 2358 253c
00000070: 7df8 a33b 053a 483b d1c7 903d 5990 e3ba
00000080: 520a ae3c f9e5 af3d 0aa3 9f3d 1d6a 65bd
00000090: 2f3b c7bd a6c2 1f3d d19c bdbd e6e1 08be
000000a0: 7bdc b93d dbd3 e5bd 204b e63d 9ac5 f7bd
000000b0: 7173 dabd 5438 9e3d 83d0 753c 8c99 31bd
000000c0: 707f 3a3d 4140 b4bd 11f0 78bd 390b d0bd
000000d0: 62b8 94bd 02ef e2bd 01f3 e33d a610 3fbd
000000e0: f9f5 ef3c 8642 6fbd b70f 0ebd af87 c93d
000000f0: 0107 813c cb61 533d 032c 563d 0237 dfbd
-0.0015875536 -0.0760105 -0.058694113 0.017781295 -0.05175863 0.040004425 0.009068331 -0.095074154
0.07511178 -0.044419985 -0.053431105 -0.050098788 0.053591296 -0.117373824 -0.09759829 0.058068205
-0.029906733 -0.020945922 -0.099193804 0.0035468477 0.053893812 -0.05040438 0.016418476 0.00979557
-0.03742889 0.10706658 0.04270808 0.010091814 0.0050039873 0.003055216 0.07069362 -0.0017361745
0.021245155 0.08588786 0.07794769 -0.0560094 -0.09728085 0.03900399 -0.09258426 -0.13367423
0.090752564 -0.11222049 0.11244798 -0.120982364 -0.1066655 0.077255875 0.015003326 -0.043359324
0.04553169 -0.08801318 -0.06077582 -0.101583906 -0.07261731 -0.11080743 0.11130334 -0.046646737
0.029292094 -0.05841305 -0.034682956 0.09840333 0.01575041 0.051606935 0.052288067 -0.10899164

bias_hh_l1 f4 [64]
00000000: 3470 a73d c70b dc3d 8f74 083d da0d c03d
00000010: fb52 77bd 6fb3 b0bd a41c dfbd 0026 0abc
00000020: f476 b6bb b287 77bd ebf6 50bd 83a7 35bd
00000030: aa7f ff3d 555f 47bb 6726 c03d 023d a23c
00000040: 7814 573d 8733 993d d1c3 d0bd 0a17 86bd
00000050: 13aa ccbd 4cdf ed3d de01 583d 0bfe 3cbd
00000060: e07f d7bd 7f8d 9a3d abed 213d 5bef 99bd
00000070: 7c94 a7bd 0cf5 73bd d64d 0b3d 60d1 e9bd
00000080: debb a5bc f22b 703d 2ebc 663d ebe0 5b3b
00000090: cc5f 963c ca88 103d 6d6e 2a3d 75e4 b63d
000000a0: bd35 1f3d 472a 763d 4e10 9c3d 5a83 d2bd
000000b0: cfa4 92bd 6e97 973d bc0d f93c c8fb 79bd
000000c0: 3474 0f3d 25a6 f6bd 3f3d 1dbd 8b96 a73d
000000d0: b2ac 42bc 4a0d b4bd 8720 873d 7d2f 863c
000000e0: 2aa6 20bc 90c3 fabd 0b73 51bd 012c ab3c
000000f0: 23f6 9ebd b960 493c 176b 9ebd 7cf8 b63d
0.08175698 0.10744434 0.033314284 0.09377642 -0.06038187 -0.08627974 -0.10894135 -0.0084319115
-0.0055683795 -0.060432144 -0.05101673 -0.044349205 0.12475522 -0.0030421813 0.09382325 0.019804481
0.052509755 0.07480531 -0.10193599 -0.06547363 -0.099933766 0.11614856 0.052736156 -0.04614071
-0.10522437 0.075465195 0.0395333 -0.075163566 -0.08182618 -0.059559867 0.034009777 -0.11416888
-0.020231184 0.05863566 0.056331806 0.003355081 0.018356226 0.035286702 0.041609216 0.089302935
0.03886961 0.060098913 0.07620297 -0.102789596 -0.07160341 0.0740193 0.030402057 -0.061031133
0.03502293 -0.12043408 -0.038388487 0.08183011 -0.011881994 -0.08791597 0.06598001 0.016380066
-0.009805242 -0.12244332 -0.051135104 0.020895006 -0.077617906 0.012291127 -0.077352695 0.089341134

weight f4 [1, 64]
00000000: 2fef d33d fb0e aa3d bf11 aebc bfda 0fbe
00000010: 574e 2ebd 6698 b0bc 0584 dabd 5451 ba3d
00000020: f18c 403d 6071 bd3d bae9 f5bd cfaf 8bbd
00000030: d9a4 913c 5418 5f3b f93a 88bd 3dd9 c53d
00000040: cfde 223d f6ee 413a 7170 f33d 29ff f2bd
00000050: e073 febd e964 253d a8b3 f43d 46dc a33d
00000060: 144f 86bd 2035 ce3d e37a 443d bd9c 223c
00000070: a0cc 843d 3e38 013d cdd2 313c 9138 21bd
00000080: 55b9 6cbd 2826 9abd 2068 22bc 39dc 98bd
00000090: 983f 753d b9aa 2e3d c0b2 00be 3a93 a5bd
000000a0: a423 c93d cf99 87bd ee9f 733c 75af b5bd
000000b0: e07a 19bd 2b3a 5c3d 70a7 253d a4e2 793d
000000c0: 11de c13a 0d6f d8bd fe5b bebc 0dd4 893d
000000d0: 528e 173d 4838 813c 0b31 f23c 71e8 e43d
000000e0: d7a3 9c3d f91c fbbc 24a8 9fbd 7e65 e23d
000000f0: c8a2 84bd d891 ccbd 7985 1d3d 466d b0bd
0.10348355 0.083036385 -0.021248696 -0.14048289 -0.04255518 -0.021557044 -0.10669712 0.09097543
0.047009412 0.0925014 -0.120074704 -0.06820642 0.0177788 0.00340416 -0.06651873 0.096605755
0.039763268 0.00073979737 0.11886681 -0.11865074 -0.12424445 0.04037944 0.11948329 0.08000998
-0.06558052 0.100687265 0.047968756 0.009925065 0.064843416 0.031547777 0.0108534815 -0.039360587
-0.057793934 -0.07526809 -0.009912521 -0.07463879 0.0598751 0.042643283 -0.12568188 -0.08084722
0.09821251 -0.066211335 0.014869673 -0.088713564 -0.0374707 0.05376641 0.040442884 0.061007157
0.0014790912 -0.10568056 -0.023237225 0.067298986 0.03700096 0.015773907 0.029564401 0.11177147
0.076484375 -0.030653464 -0.07795742 0.11054514 -0.064763606 -0.09988755 0.038457368 -0.08614592
