mlartifacts/635037021632314375/71fc4e5fa2524d1da4db50b2985082b2/artifacts/best_model/data/model.pth (torch, 57372 bytes, 9 tensors)

weight_ih_l0 f4 [64, 1]
00000000: ad43 c33d cf7b d43d ea44 4dbd 6e14 eb3d
00000010: ac14 38bd 9e2d 0a3d 55de 8bbd b106 c23d
00000020: ccac e13d cd3d c9bd a483 de3d e508 b63c
00000030: c55c d03d 38a0 013d f1a0 903d 3920 05bd
00000040: 2d01 da3d d376 0f3d fa15 81bd 6c71 d63c
00000050: 0ec9 9cbd f58f febc 3ba6 8cbd 4812 ce3d
00000060: 21b5 d6bd 44eb 9cbd ad61 52bd b958 c0bd
00000070: 528f 1abc 8ad8 fcbd 2832 e73d 76a5 d9bd
00000080: 96a3 c53d 502a 0f3d a4d9 60bd b2cf 173d
00000090: 50f8 903c 36e3 e23d 6db6 de3c e771 65bd
000000a0: 3c13 5b3d f3a1 6ebd cf81 903d fe8f e43d
000000b0: 8d60 b63d 4d94 90bd f3c8 9b3c 9794 bfbb
000000c0: 05ec af3d f61e c5bd a46a fdbd 2eb4 8cbd
000000d0: fc31 e0bd a70f d23d 79da 593d e1c5 8c3d
000000e0: 6d93 223d 3f0e 7d3c ec03 c83d 8c12 ccbd
000000f0: eaf3 3ebc 7b97 bfbd 540e 673d 770b 77bd
0.095343925 0.10375177 -0.05011455 0.11478506 -0.04494159 0.03373491 -0.06829516 0.094739325
0.110192865 -0.09826241 0.10864952 0.022221038 0.101739444 0.031646937 0.07061947 -0.032501433
0.106447555 0.03502543 -0.0630302 0.02617713 -0.07655536 -0.031074503 -0.068676434 0.100620806
-0.10483766 -0.07662061 -0.051362682 -0.093919225 -0.009433584 -0.12345989 0.112888634 -0.10627262
0.09650342 0.03495246 -0.05489506 0.037063308 0.01769653 0.11078493 0.027186597 -0.05601683
0.05348514 -0.058259916 0.07056009 0.11160277 0.08905134 -0.07059536 0.019016718 -0.0058465707
0.08589939 -0.09625046 -0.12373856 -0.06870304 -0.10947034 0.10256892 0.053186867 0.0687368
0.039691377 0.015445291 0.09766373 -0.09964475 -0.011654833 -0.093550645 0.05641015 -0.060313668

weight_hh_l0 f4 [64, 64]
00000000: 15d0 1c3d 327c d5bc b15b d43d 4ec4 97bd
00000010: f5a4 98bd 49b5 98bd d44a e63d 628d 2a3d
00000020: 124d f63d 503c d3bd 96f4 fdbd 2740 c8bd
00000030: 583e acbd 666a 4f3d 3743 373d e5bf d43d
00000040: 723d 84bd fd8b aebd f3dc 873d 76da 4ebd
00000050: 5968 9b3d 2adc f2bc 957a 923d 5ef0 c6bd
00000060: bc27 81bd 452b 1c3d 529d d83c 7177 02bd
00000070: 936a 983d f810 ae3d f4ad b9bd 98a2 88bd
00000080: d45f ea3d 59cb 2cbd af70 35bd b8c7 f7bd
00000090: 649b 92bd cea7 ff3c df13 87bc c7ca b9bd
000000a0: a107 3f3b 73d5 aebd 8339 d9bd 3801 8dbd
000000b0: e416 e0bd 49f8 a2bd 51ce ff3d 86e8 c03c
000000c0: 99b4 1d3d 69bb eebd 5619 a8bd 9359 2abd
000000d0: 7a44 a03c 844b e1bd c6ad 5cbd 534b 99bd
000000e0: 052e ae39 5072 3ebd b434 0ebc 2670 adbd
000000f0: c2c3 afbd d450 95bd ed53 2fbd 5905 cabd
00000100: f6a5 d63d 263a cbbc f642 dc3d b087 1f3d
00000110: b0c7 d8bd 3829 b13d c8df 0cbd 5043 44bd
00000120: 807f d4bd 5081 febd 187d 123d c0af dfbc
00000130: 5c55 473d 0017 d2bd d60f be3d f2ea bbbd
00000140: 46d1 b0bc f2e1 d53c 1429 843d e4ab ce3d
00000150: a034 e93d f2fc cabd 88da 003d 7839 5cbd
00000160: 086e 60bc 0c9d bfbd 082e e93d 2ee4 bbbd
00000170: ccd1 883d e4ef 333d a060 263d ca67 8abd
00000180: 0cb1 e83d 4206 e13c 36ba 833c ea99 e1bd
00000190: 84ee 563d fe9e 99bc 448f 6abd ece3 db3d
000001a0: b24c e43c 86a3 8dbd 5292 81bd 6d9b c3bb
000001b0: c4f0 8e3d 54d5 02bd 3211 92bd ac54 2fbd
000001c0: 4c40 bfbd 8898 363d 8027 c63d 3c02 f1bd
000001d0: 1ed3 ed3c 5c3f 843d 6aae b93c f855 36bd
000001e0: 009e 853d 0888 863d 6473 3f3d 52f0 b3bc
000001f0: 0894 07bd c818 5b3c cee4 b4bc 9893 18bd
00000200: 3efb 703d 24dc b03d 93e2 0e3c 80ed 48bd
00000210: f8e0 bb3c 07e9 e7bc c65f 513d 51bf 643c
00000220: 78d4 09be 434f cdbc 5470 ac3d e5b3 ee3c
00000230: 2b84 dfbc d319 cabd a9c4 c7bd c20e babd
00000240: 6f2f 7dbd 7fd3 ab3c 8260 ce3d f410 1d3d
00000250: 9b24 b7bd b767 5dbd e9cd af3a c07e cc3d
00000260: 6f5b 203d ae31 39bc 672f 953d 0970 d9bc
00000270: d249 c3bd 5cff e53d cf8c 9fbd 79c5 82bb
00000280: 75e8 14be f609 7e3d 9219 ed3d 27f6 c93c
00000290: 661e d4bd c2e6 13be 7c80 ffbd e50f ea3d
000002a0: 6675 1f3d 6b49 013e aced 353d a029 2d3c
000002b0: e39c b6bc 6e8a 97bd d3f5 02be e0ad 01be
000002c0: cf99 f63c 2215 25bd 79fd 85bb 3c5d 50bd
000002d0: 3e30 e0ba fe53 dfbd fa6e d2bd 2414 a73c
000002e0: 54f0 6dbd 3d25 5f3d ef8b 7abd 9aa5 90bd
000002f0: 1e11 c2bb ffe5 21bd 7bf7 72bd 478f c8bd
00000300: 663a 8f3d dc3a b2bd f1ab 803d a555 683d
00000310: 73e5 b63d e35d c4bd ae1d b83d 430d 72bd
00000320: 05fc 3d3d 386a f03d 0b6c 90bc 0191 7dba
00000330: f3c2 ebbc a2c1 d5bd 11b5 753d 5f22 febd
00000340: 58ec 9e3d 518b bf3d 361a f23d fe8b f1bc
00000350: ba56 d2bd 443b e63c 466c 8d3d f4cc febd
00000360: 056d e8bc 8475 99bd cb1d 33bc a502 7cbd
00000370: db4a 51bd 3589 22bd 8647 f3bd 2e0d d23d
00000380: 7a9c d63d 2da3 a0bc 7538 69bc e0f5 50bd
00000390: 932f e7bd 6420 f9bd e949 3e3d e68d 8cbd
000003a0: fa93 a4bd 17c8 1fbc 3381 2abd 47a5 25bd
000003b0: 6797 833b 9d32 d9bc 804a 30bd a326 75bd
000003c0: 6457 d0bd cea8 d63d 91e4 4cbd 27ac 073d
000003d0: c1a4 31bd c669 263c d8aa ee3d 15e3 6b3d
000003e0: e0d9 ddbd bf36 4b3d 2e01 f33d 9fb3 063d
000003f0: fca0 ab3d 8663 fc3d 71e9 9cbc 8b8a d43c
0.03828438 -0.026060198 0.10369051 -0.07410489 -0.07453338 -0.074564524 0.11244741 0.04163874
0.12026419 -0.10314238 -0.12400167 -0.09777861 -0.084103286 0.05063858 0.044741835 0.103881635
-0.06457032 -0.085227944 0.066339396 -0.05050131 0.07588262 -0.029645998 0.07152287 -0.09713815
-0.06306407 0.038127203 0.026442204 -0.03185219 0.074422024 0.0849933 -0.09066382 -0.06671637
0.11444059 -0.042186115 -0.044296917 -0.1209864 -0.07158545 0.031207945 -0.016488967 -0.0907188
0.0029148834 -0.08536806 -0.106066726 -0.06884998 -0.10941866 -0.07957513 0.124905236 0.023548376
0.03850231 -0.116568394 -0.082079574 -0.04158933 0.019563902 -0.110007316 -0.05387666 -0.0748507
0.00033222153 -0.046495736 -0.008679558 -0.08468656 -0.0858226 -0.07290807 -0.042804647 -0.09864301
0.10480873 -0.024808 0.10754959 0.03894776 -0.10584962 0.0865044 -0.034393102 -0.047915757
-0.10375881 -0.12427008 0.03576383 -0.027305484 0.04866539 -0.10258293 0.09280364 -0.09175672
-0.021584164 0.026108716 0.064531475 0.10091379 0.113869905 -0.09911527 0.031458408 -0.053765744
-0.0136981085 -0.09356126 0.11385733 -0.09174381 0.066806406 0.04392995 0.040619493 -0.067580774
0.11361894 0.027468804 0.016080003 -0.11015685 0.05247356 -0.018752571 -0.057265535 0.10736832
0.027868602 -0.06915955 -0.063267365 -0.005969456 0.06979516 -0.031941727 -0.07132186 -0.04280536
-0.093384355 0.04457906 0.09675503 -0.11768004 0.029031333 0.06457397 0.022666175 -0.04451558
0.06524277 0.06568915 0.046740904 -0.02196518 -0.033100158 0.0133726075 -0.022081759 -0.03725013
0.058833353 0.086357385 0.008721012 -0.049054623 0.022934422 -0.028309358 0.051116727 0.013961629
-0.13459957 -0.025062209 0.084198624 0.029138515 -0.027284702 -0.09868207 -0.09754307 -0.09084846
-0.061812814 0.020974873 0.10077001 0.038346246 -0.08942529 -0.05405399 0.0013412806 0.09985113
0.039149698 -0.0113033485 0.07284432 -0.02654268 -0.095355645 0.112303466 -0.07790529 -0.0039908257
-0.145418 0.06202122 0.11577143 0.024653507 -0.103573605 -0.14443496 -0.12475678 0.11428813
0.03893032 0.12625663 0.044416115 0.010569006 -0.022291606 -0.0739945 -0.12789087 -0.12663984
0.030102639 -0.040303357 -0.004089054 -0.050870165 -0.0017104221 -0.10904692 -0.10275073 0.020395346
-0.058090523 0.054478873 -0.061168607 -0.07062836 -0.0059224507 -0.039525982 -0.059318047 -0.09792953
0.069935605 -0.08702633 0.06282795 0.056722302 0.08930483 -0.0958822 0.08990036 -0.05909468
0.046382923 0.117390096 -0.017629644 -0.00096727913 -0.028779482 -0.10437323 0.05998713 -0.124088995
0.07759923 0.09352744 0.118214056 -0.029485699 -0.10270448 0.028104432 0.06905417 -0.124414355
-0.028372297 -0.074931175 -0.010932396 -0.06152596 -0.05109678 -0.039681632 -0.118788764 0.1025642
0.10479064 -0.019609058 -0.014234652 -0.051015735 -0.11288371 -0.12164381 0.046457205 -0.068630025
-0.08036037 -0.009752295 -0.04162712 -0.040440824 0.0040158513 -0.026513392 -0.0430398 -0.0598513
-0.101729184 0.10481416 -0.050022665 0.03312316 -0.043370012 0.010157054 0.116536796 0.05758961
-0.10832572 0.049612757 0.118654594 0.032886144 0.08380315 0.1232367 -0.019154282 0.025944969

bias_ih_l0 f4 [64]
00000000: 7eda e83d e87b 67bc fb66 dd3c 7852 cbbd
00000010: fb76 493d bc76 033e 2cc6 613d 6b5d 3ebd
00000020: c0b8 d03d 0ea6 f2bd d0c0 75bc b3bd fdbc
00000030: b6ee febd ef11 65bd 305c b8bd 5813 953c
00000040: 35cd 27bc dc21 993d 7738 fcbc 4529 c93d
00000050: 9222 6e3b b81b b13d fcdf b03d 1fbb d7bd
00000060: 3f19 acbd 3665 803d 2723 d13d 5f11 dcbd
00000070: cb59 a4bc 14d8 44bd b603 f13d e0a9 d43d
00000080: 4651 ba3d 3f8d a73d 95e8 c2bc f426 e23d
00000090: 9427 6bbd 4a61 d03b cb6c 9cbc db02 ddbd
000000a0: 598e 1ebd 92dc 613c a971 e039 5e96 a9bd
000000b0: 69af 78bc 637b 2e3c 42da 81bd 9d27 423d
000000c0: d04c d4bd 510b 78ba f469 d1bd 3606 ffbd
000000d0: 133b 83bc d856 e83d 26ae 0a3e 0097 6f3d
000000e0: b148 c83d 1891 4ebd c51e 903d f57c 9a3d
000000f0: 3859 0ebe 6ced c5bd 4cb1 933d e56f a8bb
0.11369799 -0.014128663 0.027026644 -0.09927839 0.049185734 0.12838262 0.055120632 -0.04647581
0.10191488 -0.11848079 -0.014999583 -0.030974245 -0.12447874 -0.055925306 -0.09001958 0.0181977
-0.010241796 0.07477161 -0.030788643 0.09822325 0.0036336523 0.08647865 0.08636472 -0.105337374
-0.08403253 0.062693045 0.10211783 -0.10745501 -0.020062348 -0.04805763 0.11768286 0.103839636
0.09097533 0.081812374 -0.023792544 0.11042586 -0.05741079 0.006359254 -0.019094845 -0.1079156
-0.038709972 0.013785498 0.00042809293 -0.082806334 -0.01517854 0.010649535 -0.063404575 0.04740106
-0.10366213 -0.00094621355 -0.10225287 -0.124523565 -0.01601938 0.11344689 0.13542995 0.058493614
0.0977949 -0.05043134 0.07037119 0.07543365 -0.13901222 -0.09664425 0.07211551 -0.005140292

bias_hh_l0 f4 [64]
00000000: 0051 adbd f203 cabd 50df 8d3d 66b7 5f3c
00000010: 1bfe 90bc 3c2c e5bd 5e30 cc3d 3532 a3bd
00000020: 0c24 643d 9ed4 77bc a078 853b 5563 7b3d
00000030: 688d 07bd b440 a1bc a83c ce3d 26b4 e3bd
00000040: c97b 643d 8e10 74bc 5102 36bd dd5c a13d
00000050: 6a50 2d3c 67b8 08be 14c2 c53d 1551 7bbd
00000060: bf21 dd3d c549 54bd bde2 d83d 12e8 133d
00000070: 1fce e4bc 8472 433d 40bf 7ebb 9df2 7dbd
00000080: ca08 8c3d 69d5 c33d 4524 e3bc daba e63d
00000090: 5ccd 133c e103 87bd cb82 5ebd 91fc 893d
000000a0: 51a9 f6bc 87b5 7f3d 88f5 e0bd 6018 8d3b
000000b0: c36b afbd 36d0 083d b694 003e dbd5 ac3c
000000c0: 1258 25bd 258b f4bd f095 72bd 102b afbd
000000d0: 7673 f33d 4aa4 89bd d555 863d 3b4b e93d
000000e0: 4d4d 3c3d 68fb bbbd c6ae 68bc e862 1bbd
000000f0: 48cf 793d a315 4ebc 63bd 3c3c e78b c13d
-0.08462715 -0.09864034 0.06927359 0.013654565 -0.017699292 -0.11190078 0.09970163 -0.079685606
0.05569844 -0.0151263755 0.0040732175 0.061374027 -0.03309384 -0.019684173 0.10070163 -0.11118345
0.055782113 -0.014896525 -0.044435803 0.078790404 0.010578254 -0.13351594 0.09656158 -0.061356623
0.10797452 -0.051828165 0.10590122 0.03610999 -0.027930317 0.047716632 -0.0038871318 -0.061998952
0.06837614 0.09562189 -0.027727256 0.11266108 0.009021129 -0.06592537 -0.054323953 0.06737626
-0.030110033 0.062428977 -0.10984331 0.0043058842 -0.08565476 0.03340169 0.12556729 0.021098068
-0.040367194 -0.11940602 -0.059225023 -0.085531354 0.11887257 -0.06720789 0.0655934 0.11391302
0.045972157 -0.09178811 -0.0142018255 -0.03793612 0.060988694 -0.012578401 0.011519763 0.094505124

weight_ih_l1 f4 [64, 64]
00000000: ceca 963d 458b d03d f24b acbd 3fa5 003e
00000010: e35c d4bc 3f7a 9b3c 5828 a2bc 3445 5fbd
00000020: e292 463d 803f 5c3c 38d7 95bd b4dd c2bc
00000030: 7a43 fa3d e714 463d cb4e 223d d539 ffbc
00000040: fe30 48bc 0ddc 163e 8283 66bd f64b 39bb
00000050: 0a87 b33c 8582 17be 2618 89bd e859 673d
00000060: 5f52 a9bd 13d2 c53c 2744 1abe 61ad a3bd
00000070: 73b6 63bd de02 933d 350a c03d 8e6b 0cbe
00000080: 3317 bd3d 67d0 2a3d 7379 903d b2b3 e63d
00000090: 52a3 18bd e808 1f3e 9704 c13c bf2b 94bd
000000a0: b96e a63d d776 a43d e11d a73d 8821 9dbd
000000b0: 866f 823b 4d82 943d ccaa 35bb 0bde 86bd
000000c0: 575c 64bd 8430 e7bd 42d7 e5bd d2df 65bc
000000d0: 8279 c63b d018 273e bdf0 003e 3a50 3b3d
000000e0: 0ae8 e33d 92e9 f33d acee 82bd cb35 9d3c
000000f0: 6cb5 05be 8aa0 573d 67bf 2bbc f507 93bc
00000100: a6ed 363d 0af5 d43d e48c d9bc a806 37bd
00000110: 2ec5 973b a390 f53d e480 e3bd f5c2 0fbd
00000120: 2243 20bd f0be dabd 8da6 f73c 2def 5a3d
00000130: d6c3 383d b627 723c f50c fd3d d17d 21bd
00000140: 13d6 d9bc ed4c 553c edb2 f4bd eeed dc38
00000150: 61d6 27be 1f3e c6bc 1146 12be 1a33 c13d
00000160: 3c5d 223d 3651 0ebe 8552 e5bd 5d3b 14be
00000170: 1a29 e83c fb9c b2bc 73c8 97bc 9ed3 f13c
00000180: fe69 c83d 372a 88bd 363a 58bd 5b4a 04bc
00000190: ea60 5a3c ceba ec3d 5c30 0e3d 82fe 07be
000001a0: 8623 093e b317 24be ae9d 483b f2d3 c03d
000001b0: 713b 203e 3c45 9a3d 9e03 633c 3984 063d
000001c0: b7a3 82bd 1700 90bd 70d1 adbd eb21 2cbc
000001d0: b9f5 02be f07e 953d 1b73 e23d ddd9 123e
000001e0: 7e76 cb3c e641 2b3e c2ae 93bd 40bb a6bd
000001f0: 8279 1339 ea57 64bc 78c0 d63d 3808 04be
00000200: f6ae e53c 183c 2abe 439f 16bd ba3b 6bbd
00000210: da78 94bd 8f02 2cbe 1f1b 7ebd af3a 533d
00000220: 0b35 b0bc 0032 143c aa74 5dbd 715d 1fbe
00000230: 46fe 2abe 9b14 0dbe 8cef 2dbe 715a 063e
00000240: e9c9 bdbd 9181 a9bd 6f7e 70bd a971 d5bc
00000250: 2731 f73c 73f9 13bd 0f2c 043e 2928 673d
00000260: aa87 24bd 4940 f53d a4af ea3c 4a94 433d
00000270: b458 7b3d 2422 d63c ba9a 6a3d 76db 003e
00000280: 3e31 05be d473 00be 1d70 99bd a7a9 0dbc
00000290: 40f3 05be f963 1dbe c22e 06be cce3 98bd
000002a0: b554 1abe 7d46 243e 322a ab3c 8a3b 7d3d
000002b0: 1f63 e0bd 9e53 19bb ec23 b8bd 52e9 733c
000002c0: 3dfa 0dbe 94bc 893d 3f74 ffbc eba8 8c3d
000002d0: ed59 273e c8df e3bc 800e 2d3d 3544 0dbe
000002e0: db4c 88bd c41e 06be e69b 80bd ff8e 50ba
000002f0: 9e01 bfbc 0913 93bd 0c22 c3bd 907d 863d
00000300: 5b6a 85bd fe66 23be 0d5a 0c3e d4e1 4a3d
00000310: 84dc 03bd 921b fabc d82e 013e c2be 25be
00000320: 7c4a 1dbe d26c e63d 6fe6 3abd eb2e aeba
00000330: a4d6 c2bd 8f0c b7bc e6d1 223d e3fb 4e3c
00000340: a511 abbd db39 26be c981 c33c 146b 1b3d
00000350: da8e 99bd ba83 093d 617e 093e 1a72 a1bd
00000360: 5c88 46bb 6298 b23b b5f9 f4bb ea09 6e3d
00000370: 6b51 efbd ea34 ba3d b108 99bd 1b25 df3c
00000380: b64d 53bd 1b6e d73c b346 0dbd 4660 20be
00000390: b8de f9bd ee16 0abe ea1a d9bd f849 113e
000003a0: 0038 0fbe 1a6a f8bc 4989 14be 06fc d8bd
000003b0: 0722 3fbd 8a70 07bd 5b98 21bd f4f3 4a3d
000003c0: 68ef 83bd 54d5 c63d 941f 933d ded6 273e
000003d0: bc9e 163d c682 853d e075 4e3d 4400 883c
000003e0: f128 e23c 7198 0ebe d7ea 01be e1b3 c53d
000003f0: 1c75 b53d b0b3 1f3e 946e 73bd 5948 a53c
0.07362901 0.101828136 -0.08412923 0.12563036 -0.025923198 0.01897919 -0.019794628 -0.054509357
0.048479922 0.013442874 -0.0731644 -0.023787357 0.122199014 0.048359778 0.039625924 -0.031155506
-0.012218712 0.1473238 -0.05627776 -0.0028274036 0.021914978 -0.14795883 -0.06694059 0.056482226
-0.08267664 0.024148023 -0.1506506 -0.07992054 -0.05559392 0.07178281 0.09376947 -0.13712904
0.092329405 0.041702654 0.070544146 0.11264743 -0.03726513 0.15530741 0.023561759 -0.072349064
0.081265874 0.080304794 0.08159996 -0.07672411 0.00398058 0.072514154 -0.002772021 -0.0658532
-0.055752125 -0.112885505 -0.11222698 -0.014030414 0.0060569653 0.16318059 0.12591834 0.045730807
0.11128242 0.119097844 -0.06393179 0.01919069 -0.13057488 0.052643336 -0.010482646 -0.01794813
0.044660233 0.103983 -0.02655644 -0.044684082 0.00463166 0.11990478 -0.11108568 -0.035098035
-0.039126523 -0.1068095 0.030230785 0.053450752 0.04510864 0.014779976 0.12355987 -0.03942663
-0.026591336 0.013018829 -0.1194819 0.00010534735 -0.16390373 -0.024199544 -0.1428454 0.09433575
0.039639696 -0.13898167 -0.1119738 -0.1447577 0.028339911 -0.02180337 -0.018528199 0.029519852
0.097858414 -0.06648677 -0.05278989 -0.008074368 0.01332877 0.11559068 0.034714088 -0.13280681
0.13392457 -0.16024666 0.0030611563 0.09415425 0.15647675 0.07532737 0.013855843 0.03284094
-0.063788824 -0.07031267 -0.08487213 -0.010506134 -0.12789048 0.07299602 0.11057111 0.14340921
0.024836775 0.16724357 -0.07211067 -0.08141184 0.00014064278 -0.013936976 0.10485929 -0.1289376
0.02803753 -0.16624486 -0.036772978 -0.057430007 -0.07249613 -0.16797851 -0.062037583 0.051569637
-0.021509668 0.009045124 -0.054066338 -0.15562989 -0.1669856 -0.13777392 -0.16985911 0.13120438
-0.09267027 -0.08276666 -0.058714326 -0.026055174 0.030174805 -0.036126565 0.12907432 0.056434784
-0.04016844 0.11975152 0.028648205 0.04774884 0.06136389 0.026139326 0.057276465 0.12583718
-0.13007066 -0.12544185 -0.07492087 -0.008646405 -0.13081074 -0.15370168 -0.13103774 -0.07465324
-0.15071376 0.16042514 0.020894144 0.06182436 -0.10956406 -0.0023395787 -0.089912266 0.014887171
-0.1386499 0.067254215 -0.03118336 0.06868156 0.16342898 -0.027816668 0.042250156 -0.1379555
-0.06655284 -0.13097674 -0.06279735 -0.00079558784 -0.0233162 -0.07181365 -0.09527978 0.06566918
-0.06514426 -0.15957257 0.13706227 0.049531773 -0.032192722 -0.030530725 0.12615526 -0.1618605
-0.15360445 0.112512246 -0.045629915 -0.0013289129 -0.09513596 -0.022344856 0.039750956 0.012633297
-0.08352975 -0.16233008 0.023865597 0.037943915 -0.0749795 0.03357289 0.13427116 -0.07883091
-0.003029368 0.0054502944 -0.0074760565 0.058114924 -0.11685451 0.09092124 -0.07472361 0.027239373
-0.051587783 0.02629762 -0.034491252 -0.15661725 -0.12200683 -0.1348531 -0.106008366 0.14188373
-0.13986206 -0.03032403 -0.14505495 -0.10594945 -0.04666331 -0.03306631 -0.039451938 0.049549058
-0.064421475 0.09708658 0.071837574 0.16390559 0.036772475 0.06519084 0.050405383 0.01660169
0.027607413 -0.1392534 -0.1268724 0.0965345 0.088602275 0.15595889 -0.059431627 0.0201761

weight_hh_l1 f4 [64, 64]
00000000: a6f4 323e 4122 ab3d e4f7 673d 1666 60ba
00000010: 9c22 81bd 575f ad3c 660a 8b3c 1cba 223d
00000020: 82ca 863d 061f 573d e8a8 ce3c 8bee c43b
00000030: 39a3 043d 94a2 393e f2d4 8f3d 6912 1d3e
00000040: a352 ae3d 0f18 883d d93e 5dbd 6858 933c
00000050: 8976 0dbe 536d 53bd 0eb8 bf3d 93a7 90bd
00000060: cee9 5abc 8e5b 54bc ca7e 403d d526 01be
00000070: 2548 e73d 271f 2abd d982 8b3d 8c9c 89bd
00000080: 026b 2fbe a7db b83c d11b 5cbd 53d4 dabd
00000090: b1c2 86bd 0cb0 d13d b671 4d3d 3ad6 a0bd
000000a0: 428a 463c 8104 1ebe da59 0d3e c4a9 c3bd
000000b0: 2c1b d1bd 7652 d23d cb97 243e 7b8c fb3d
000000c0: c6e9 b53d 4f16 683d c18d 49bd 3d34 b93d
000000d0: 4f75 2b3d 6142 fdbd 885e 03be 3703 2b3b
000000e0: 6b4e fd3d 3e33 13be 314c 17be 9cf9 1e3d
000000f0: 036d 263d 7002 28be 0157 8e3c 59aa b1bd
00000100: a0c4 8dbb e090 e33d 64b5 4e3d 21a3 9c3c
00000110: bc3f c6bd db7f 16be 773e 25be c860 733c
00000120: 7885 223c 3851 08bd 72f1 11bd 229b d3bd
00000130: f620 c13d c80a 563b e536 81bd f58c 3d3c
00000140: 1dbe 133e 6c58 4cbd 4156 0ebd ec84 53bd
00000150: 4a26 b3bd db0e 603d 200a 113e bb31 893d
00000160: 2480 2fbd 2854 b03d 6705 b2bc f2be 04be
00000170: 1e9a 993d e145 973d 8049 043e 0269 abbd
00000180: 9802 733d ea6c 60bb 70ae e7bd 043c 96bd
00000190: 113b b73d b348 5abd 0927 dfbd 6c68 28bc
000001a0: dd6c 823d e2e8 093c a8bf 6136 8056 5b3d
000001b0: 24b0 ecbd dbf0 51bb 6c47 0f3e 7342 3a3d
000001c0: c7b3 bc3d 2dd5 a7bd 52ca 13be 2557 933d
000001d0: a788 e43d 3090 153d 4d5e 19bd d7b9 8c3d
000001e0: 6bb9 143e 22c5 d4bc e951 32bd 8b59 913d
000001f0: 4225 8ebd b645 1abd a504 613d 98a2 b33b
00000200: 7c0c 90bd 9ebe fdbd 1b62 c53d ef7e 99bc
00000210: fda3 163e e543 1d3e 9b55 a23d edbd 97bd
00000220: ead8 6cbd d4f8 8bbb b15e f8bc b046 c13c
00000230: e1d6 0abe e787 37be 5c8c 1dbd 477a 06be
00000240: 22b8 fc3c a3d1 463c 401a d3bd bb23 c9bc
00000250: 8b43 2a3e 442a febc 36b0 013b e530 04bd
00000260: c4b5 4d3c 4ecb f5bd 7a89 8d3c 5613 46bd
00000270: ef45 fcbd 423d a3bc fd70 aabd 082a b93d
00000280: f3c9 ff3d c522 893a 1488 473b 84ad 82bd
00000290: 224e 30be 4f37 7cbd f17a 223e bdc0 2b3d
000002a0: a950 603c 27c0 62bc 6222 39bd 4864 23bd
000002b0: 751a 2a3d 3883 06bd 275d e3bd a238 473d
000002c0: 0287 bdbc 66d6 f83d a3b4 3b3e 8a62 b2bc
000002d0: dac0 87bd 8fd5 e13d 854f 7d3e 7eb8 45be
000002e0: f27c a4bd 76d4 fc3d 04f9 a83c 998d 2cbe
000002f0: 992a 68bc 9140 803b 2682 35bc 980e 1a3e
00000300: b98b 65bd 3e41 1cbe 16e8 9b3d 0e2c a63d
00000310: f708 c73c 43ba b73d 33dc 0c3c df85 e63b
00000320: f5ef 2e3d f146 203b 24e6 6c3d f4d9 353e
00000330: 437e 8ebd 0866 3abe 2d7d 0d3e 1b7e 9c3d
00000340: 0a73 3cbc 745d 343d c957 613d 027a 063e
00000350: 0156 fe3d d638 16be 4003 5cbd a36f cdbd
00000360: 3223 c03d 65d9 20be e7b8 e6bc 12ef fc3d
00000370: e842 73bd ad03 d9bd 5746 01be 0f64 be3d
00000380: 5a0c 35bd 2775 563d 5442 a13d 3814 323d
00000390: 03bd 32be ffc1 d0bc d5cb adbb f9ad d43c
000003a0: 6082 12be 84aa 65bd 35f9 dfbc f081 913d
000003b0: 1d08 1b3e 617f 5e3d 43dd 0a3d 2150 afbc
000003c0: 98bc ea3c f8a1 ed3d 6d84 86bd ab7f 483c
000003d0: 4dd0 1ebd 41bd 633c f2b0 9c3d 3530 d53c
000003e0: 1d07 0d3d a269 423d 91b7 7bba a23a 0dbe
000003f0: fd7a 063e f127 fdba 5067 12be 5d4f 07bc
0.17476138 0.08356143 0.05663289 -0.0008560134 -0.06305429 0.021163626 0.016972732 0.03972827
0.06581594 0.05251982 0.025227025 0.006009882 0.032382224 0.18128425 0.07023038 0.15339054
0.085118555 0.06645214 -0.054015014 0.017986491 -0.13814749 -0.05161793 0.093612775 -0.07063212
-0.013361407 -0.012961281 0.046995915 -0.1261247 0.11293057 -0.041533615 0.068120666 -0.06719312
-0.17130664 0.022565676 -0.053737465 -0.10685029 -0.06580103 0.102386564 0.05015727 -0.078533605
0.012117924 -0.15431406 0.13803807 -0.095538646 -0.10210261 0.102696344 0.1607353 0.12282654
0.08882479 0.0566619 -0.049207453 0.09043167 0.04185992 -0.123661764 -0.1282903 0.0026094445
0.12368473 -0.14375016 -0.14775158 0.038812265 0.040631305 -0.1640718 0.017375471 -0.08675069
-0.004326418 0.11111617 0.050465956 0.019120755 -0.09680125 -0.1469721 -0.1613711 0.014854617
0.009919517 -0.03328058 -0.03563065 -0.103323236 0.09430115 0.0032660235 -0.063092984 0.011569251
0.14427991 -0.049889013 -0.034750227 -0.051640436 -0.087475374 0.054701667 0.14164019 0.066989385
-0.042846814 0.086098015 -0.021731092 -0.12963465 0.07500099 0.07386375 0.12918663 -0.08369638
0.059328645 -0.0034244605 -0.11312568 -0.07335666 0.08946813 -0.053291988 -0.10896117 -0.010278802
0.0636842 0.00841734 3.3639171e-06 0.05354929 -0.11557034 -0.003203443 0.13992089 0.045473527
0.09213977 -0.08194957 -0.14432648 0.07194356 0.11158877 0.03651446 -0.037443448 0.06871384
0.14523856 -0.025972907 -0.043535147 0.07097157 -0.069407 -0.037664138 0.05493607 0.005482029
-0.07033631 -0.12389873 0.09637853 -0.018737284 0.14710994 0.15357931 0.07926484 -0.07409272
-0.057824053 -0.004271606 -0.03031859 0.023593277 -0.13558532 -0.17922936 -0.038463935 -0.13132583
0.03084952 0.012134942 -0.10307741 -0.02455317 0.16627328 -0.031026013 0.0019788868 -0.032273192
0.012555543 -0.12001668 0.017277468 -0.048358284 -0.12318026 -0.019926671 -0.08322332 0.0904122
0.12489691 0.0010462633 0.00304461 -0.06380752 -0.17217305 -0.061576184 0.15867211 0.041931856
0.013691106 -0.013839758 -0.045198806 -0.039890558 0.041529138 -0.032839984 -0.11101752 0.048637994
-0.023135666 0.12150268 0.18330626 -0.021775503 -0.066285804 0.11027061 0.24737366 -0.1930866
-0.08031644 0.12345211 0.020626552 -0.1685089 -0.014170312 0.003913947 -0.011078393 0.1504463
-0.056041453 -0.15259263 0.07612626 0.081138715 0.024296267 0.089710735 0.008597421 0.0070350016
0.04270931 0.0024456347 0.057836667 0.17758924 -0.06957676 -0.18202984 0.13817282 0.0764124
-0.011502037 0.044034436 0.05501536 0.1313248 0.12418748 -0.14670119 -0.053714037 -0.10031059
0.09381713 -0.1570793 -0.02816434 0.123502865 -0.05938998 -0.10596404 -0.12624489 0.092964284
-0.044201232 0.05235782 0.07873979 0.043476313 -0.17454915 -0.02548313 -0.0053038397 0.025961863
-0.14307547 -0.05607082 -0.02734051 0.07104862 0.15139814 0.054320697 0.033902418 -0.021400513
0.028654382 0.11603159 -0.06568227 0.01223747 -0.03877287 0.013900102 0.07650937 0.026023963
0.034430612 0.04746402 -0.00096022437 -0.13791898 0.13132854 -0.0019314272 -0.14297223 -0.008258668

bias_ih_l1 f4 [64]
00000000: 5ada 113d 9c38 14bd fd21 d4bd d05b a0bc
00000010: d510 cabd b4a7 1d3b 5f3e b3bc f334 55bd
00000020: bca9 f93d 805a 3bbc 1b00 b5bd f354 b4bd
00000030: 55b4 cf3d 6583 9abd 0d3d 04be a240 c43d
00000040: 3a48 8f3b e033 be3c 7f15 62bd 0f85 03bd
00000050: 3bc1 aa3c 5b3e 9dbb e3ec 563d 8b94 473d
00000060: 968c 86bd 36b0 153e 6d2e a23d 18ec dfbc
00000070: 56f1 6e3d 9327 463d 20be e33d 42cd 31bd
00000080: c09a 30bc 1530 5b3d 8d5c 263d 87eb cfbd
00000090: 7048 74bd 9c10 883d 0c7e 07be 0dd2 2fbe
000000a0: aaf6 fe3d c34d 10be 3d8e 1d3e b7c6 21be
000000b0: d58c 1ebe d86c ea3d 66c4 423d d0bf acbb
000000c0: 9d6b c33d 825b f7bd 8d33 e6bd 91f4 90bd
000000d0: 1ebc eebc 89f2 1dbe bb08 a03d 4e0f f8bb
000000e0: 6c7e 803d 462f d1bd 18ec 93bd c4b2 0b3e
000000f0: 16c7 2cbc e755 343c 2e2b b93d 10a6 1cbe
0.035608627 -0.0361868 -0.10358045 -0.01957503 -0.09866492 0.0024056258 -0.021880327 -0.05205245
0.121905774 -0.011435151 -0.08837911 -0.08805265 0.101418175 -0.07544593 -0.12913914 0.0958264
0.0043726237 0.023218095 -0.05519628 -0.032109316 0.020844093 -0.004798693 0.052472007 0.048725646
-0.065697834 0.14618 0.07919011 -0.027334258 0.058335625 0.048377585 0.11120248 -0.04340864
-0.010779083 0.05351265 0.040615607 -0.10152345 -0.059639394 0.06643793 -0.13231677 -0.17169972
0.12449391 -0.14092164 0.15386291 -0.1579846 -0.1548341 0.114465415 0.04755058 -0.0052718893
0.0954201 -0.120780006 -0.11240301 -0.07077897 -0.029142436 -0.15424551 0.07814165 -0.007570184
0.06274113 -0.10214095 -0.07222766 0.13642412 -0.010545513 0.011006809 0.09041439 -0.15297723

bias_hh_l1 f4 [64]
00000000: c79d f33d 87cd 163e 4099 3dbc e018 673d
00000010: e5b9 dbbd 1ab4 fdbd 5f3f 0fbe f1ad 0d3d
00000020: 4ddc 283d 2cd9 e0bc 480e b0bd 838e a8bd
00000030: 3bb9 303e d046 1f3d 0b1c 7f3d 07c7 6b3d
00000040: 70be b13d 25a6 f33d c750 6dbd 021d cfbd
00000050: d42c 08be cda2 253e 4cd7 b53d 4946 ecbb
00000060: 76b2 08be 49a8 ea3d eaad 9b3d 6c95 e6bd
00000070: 046d e9bc e844 69bc 369d 983d d594 1fbe
00000080: ae09 56bd a020 d73c 65a5 9b3c faae 2cbd
00000090: b85d 653d bc73 803d 2901 f63a ce07 523d
000000a0: 17b5 943d f99a 003d a3e1 f03d 9225 0fbe
000000b0: 094b f5bd f2cb e33d 92eb 803d 72f4 bbbc
000000c0: 00e6 ad3d c0e0 1cbe 225a b8bd 33ad e63d
000000d0: 6b67 013d 9f81 06be bb6c 063d 7926 633d
000000e0: b7b0 c13c c728 2abe c09d b5bd ab51 713d
000000f0: cbd0 d4bd f1e7 e7bc 22ac 20bd bcc6 393d
0.11895328 0.1472684 -0.011572182 0.056420207 -0.10728816 -0.12387867 -0.13989018 0.03458971
0.04122572 -0.027447306 -0.08596474 -0.08230307 0.1725816 0.03888589 0.062282603 0.057562854
0.08678901 0.11896924 -0.057938363 -0.10112955 -0.1329835 0.16175385 0.08878955 -0.007210527
-0.13349327 0.11457879 0.07601531 -0.11258969 -0.028494366 -0.01423762 0.074518606 -0.15584119
-0.052255325 0.026260674 0.018999765 -0.04215906 0.05599758 0.062720746 0.0018768656 0.051276974
0.07261103 0.031397793 0.11761787 -0.13979176 -0.119772024 0.11122884 0.062949315 -0.022943709
0.08491135 -0.1532011 -0.090015665 0.11263504 0.031592768 -0.13135384 0.032818537 0.055456612
0.023643835 -0.16617118 -0.08867979 0.058915775 -0.103913866 -0.02830884 -0.03922666 0.045355543

weight f4 [1, 64]
00000000: bf0c e23f 7aaa df3f 5fe7 d8bf 3c83 e5bf
00000010: 8f50 debf 1fd2 d6bf 36b1 e5bf 9625 e23f
00000020: 1f9c da3f 93a9 e33f c6ff e5bf aa9e debf
00000030: c2ab da3f e250 d73f 0ce2 debf 328b e13f
00000040: 5dd7 dd3f 15d8 d63f 9146 e33f 07d1 e7bf
00000050: a39d e4bf a4dd da3f e6b7 e43f 71c6 de3f
00000060: 48a3 dfbf bc6e e13f ba1f de3f 1395 d7bf
00000070: c139 de3f 2422 da3f 434a d53f 8bee dbbf
00000080: 703e dfbf baea e1bf 22f7 d9bf e5c7 ddbf
00000090: ccef dd3f 5246 da3f 73ce e5bf ec42 e1bf
000000a0: 2899 e13f 9fcb ddbf d991 da3f b241 e0bf
000000b0: 9fb8 d8bf c5d6 de3f e4a1 da3f c649 df3f
000000c0: 550f d63f c275 e3bf 256b d7bf 80ff e13f
000000d0: 3909 da3f e70e d2bf 04fa d7bf c2d4 e53f
000000e0: 5d95 de3f c213 dabf b618 debf 00bf e43f
000000f0: ed0f dfbf b029 e2bf afaa dc3f 4987 e1bf
1.766014 1.74739 -1.6945609 -1.7930675 -1.7368335 -1.6782874 -1.7944705 1.766772
1.7078894 1.7786125 -1.7968681 -1.739217 1.7083666 1.6821558 -1.7412734 1.7620604
1.7331349 1.6784693 1.775591 -1.8110665 -1.7860607 1.7098889 1.7868621 1.740431
-1.7471704 1.7611918 1.7353432 -1.6842369 1.7361375 1.7041669 1.6663288 -1.7182173
-1.744093 -1.7649758 -1.7028544 -1.7326628 1.7338805 1.705271 -1.7953628 -1.7598548
1.7624865 -1.7327765 1.7075759 -1.7520049 -1.6931342 1.7409292 1.7080655 1.7444389
1.6723429 -1.7770312 -1.6829573 1.7656097 1.7034065 -1.6410798 -1.6873174 1.7955554
1.7389332 -1.703728 -1.7351291 1.7870789 -1.7426735 -1.7668972 1.7239588 -1.7619411
