mlartifacts/635037021632314375/8917a4866de84e728f325371df570b8e/artifacts/latest_model/data/model.pth (torch, 57372 bytes, 9 tensors)

weight_ih_l0 f4 [64, 1]
0.12538747 0.14256093 -0.06865237 0.101307504 0.005083521 0.040685486 -0.067262664 0.04384983
0.15408711 -0.130225 0.08768269 0.0678929 0.12874278 0.026465295 0.08123396 -0.04512838
0.07344187 0.060619928 -0.081085995 0.011828219 -0.0991102 -0.048522253 -0.07004905 0.13415179
-0.09960922 -0.0883331 -0.005810107 -0.113800265 0.010646017 -0.15730129 0.14694415 -0.13724768
0.09631906 -0.002310626 -0.07495058 0.050602254 -0.010665721 0.14538845 -0.018255467 -0.05421623
0.0637084 -0.08173968 0.08946344 0.1249215 0.050837554 -0.030397275 0.076796256 -0.00911835
0.045224555 -0.10582473 -0.15187718 -0.094515614 -0.107878126 0.09493766 0.06682254 0.08098291
0.047058497 0.030603584 0.0987746 -0.113047756 -0.028184848 -0.1086939 0.041928485 -0.07797704
00000000: 9365 003e 7efb 113e 9d99 8cbd 4f7a cf3d
00000010: aa93 a63b d3a5 263d 02c1 89bd e19b 333d
00000020: 03c9 1d3e b459 05be fb92 b33d 6f0b 8b3d
00000030: 26d5 033e bfcd d83c fe5d a63d 89d8 38bd
00000040: b168 963d 9a4c 783d 6a10 a6bd 25cb 413c
00000050: 4afa cabd 45bf 46bd e075 8fbd 165f 093e
00000060: ebff cbbd fce7 b4bd b662 bebb 1d10 e9bd
00000070: a26c 2e3c 9713 21be 8778 163e a88a 0cbe
00000080: ed42 c53d df6d 17bb b17f 99bd 4f44 4f3d
00000090: 47bf 2ebc b6e0 143e 7d8c 95bc d611 5ebd
000000a0: 8d79 823d 2267 a7bd 9c38 b73d d8d6 ff3d
000000b0: 0a3b 503d b503 f9bc 5b47 9d3d 2265 15bc
000000c0: 623d 393d a3ba d8bd b185 1bbe 6791 c1bd
000000d0: 35ef dcbd ad6e c23d 41da 883d 5eda a53d
000000e0: 69c0 403d 5eb4 fa3c 564a ca3d 9585 e7bd
000000f0: e9e3 e6bc e89a debd 34bd 2b3d 6db2 9fbd

weight_hh_l0 f4 [64, 64]
0.036920633 -0.012039384 0.086326785 -0.047599837 -0.08931516 -0.071711116 0.08582932 0.05483482
0.116891034 -0.1295106 -0.11384458 -0.08813177 -0.059055112 0.060456745 0.06931384 0.093664914
-0.04928057 -0.09756146 0.07342528 -0.06110867 0.07882612 -0.020182269 0.058048964 -0.071260944
-0.08156827 0.045650054 0.013937979 -0.02341123 0.08832745 0.08504636 -0.09642762 -0.06535383
0.113962196 -0.051513657 -0.044107247 -0.12917642 -0.060464144 0.035296906 -0.004593562 -0.08679179
0.020269431 -0.10628637 -0.105760954 -0.046214025 -0.093590915 -0.09346651 0.12290431 -0.001951186
0.056462556 -0.10677223 -0.077714115 -0.033671223 0.0020820969 -0.111530654 -0.063184515 -0.08728373
-0.008090224 -0.029001996 -0.015529413 -0.105413936 -0.07367269 -0.06036465 -0.048824586 -0.1244614
0.11735582 -0.0018192437 0.10549504 0.056263786 -0.10605588 0.09534238 -0.044790633 -0.0481339
-0.0938206 -0.15861073 0.055940047 -0.009695037 0.05818079 -0.10629692 0.108596094 -0.08927435
-0.017357204 0.028275998 0.058299802 0.10480524 0.104214914 -0.10284527 0.032353476 -0.033433948
-0.019825315 -0.09972994 0.11574906 -0.09644039 0.06962632 0.03137985 0.04796146 -0.078526534
0.12685917 0.03470504 0.004844266 -0.10402459 0.049833313 -0.012671459 -0.05865185 0.111300536
0.03476257 -0.09524459 -0.05200225 0.02077702 0.07185017 -0.031890597 -0.06105473 -0.04924918
-0.090524174 0.041256297 0.087688036 -0.12444784 0.025341926 0.077678576 0.025867507 -0.042976126
0.07104692 0.06584704 0.053945832 -0.043525975 -0.03501833 0.010250508 -0.029540164 -0.04604805
0.06734504 0.07919924 -0.009880771 -0.04951187 0.0034334497 -0.016684012 0.045868322 0.035046984
-0.1244778 -0.015719198 0.08245405 0.027639247 -0.018425243 -0.07092266 -0.09022561 -0.11632694
-0.046041183 0.041934844 0.08683008 0.053719934 -0.10010014 -0.07113704 -0.019719955 0.10017023
0.02719552 -0.026830036 0.050042313 -0.042548727 -0.08428355 0.105711944 -0.065269075 -0.012480548
-0.13910615 0.07593766 0.1086418 0.03895862 -0.08427156 -0.12947293 -0.100453116 0.090817556
0.048936356 0.12925684 0.050720938 -0.00075084827 -0.0042303666 -0.09468359 -0.11853956 -0.10427435
0.04601902 -0.057704788 -0.014846212 -0.065031745 -0.017198587 -0.10131872 -0.085560866 0.04040282
-0.043020878 0.07129668 -0.047378574 -0.07112185 -0.020905077 -0.05896775 -0.03218983 -0.10801499
0.06169658 -0.102666974 0.06131899 0.04903015 0.08623884 -0.10766298 0.09401894 -0.055641357
0.037673336 0.13529989 -0.028892709 -0.018428965 -0.030031579 -0.09937447 0.04442791 -0.1371381
0.07894613 0.08754116 0.12328711 -0.034512453 -0.09519869 0.03275469 0.06508625 -0.13557565
-0.028938077 -0.06920882 -0.015136279 -0.05687896 -0.05109574 -0.030064665 -0.12421293 0.109697014
0.09369024 -0.027004132 -0.0071748584 -0.05532557 -0.10817307 -0.12038059 0.05028709 -0.07448731
-0.08090918 0.0115875425 -0.049766365 -0.05778483 0.0057967138 -0.029179847 -0.05168678 -0.05448898
-0.098759934 0.10882608 -0.04306577 0.03935342 -0.044784386 -0.0008325662 0.113707855 0.054709874
-0.11390008 0.05111279 0.11153178 0.049588326 0.088182874 0.123448126 -0.0064306874 0.029210508
00000000: 173a 173d d640 45bc 19cc b03d 0cf8 42bd
00000010: deea b6bd 47dd 92bd 48c7 af3d 7a9a 603d
00000020: 9164 ef3d 6d9e 04be 5927 e9bd 6e7e b4bd
00000030: c6e3 71bd 7ea1 773d 6af4 8d3d 64d3 bf3d
00000040: 6cda 49bd 4ece c7bd fe5f 963d 164d 7abd
00000050: 976f a13d 4955 a5bc c0c4 6d3d 42f1 91bd
00000060: 440d a7bd 8dfb 3a3d 1f5c 643c e8c8 bfbc
00000070: 06e5 b43d c92c ae3d d87b c5bd 3bd8 85bd
00000080: 0365 e93d fcff 52bd cda9 34bd d346 04be
00000090: 40a9 77bd 7d93 103d 9785 96bb e5bf b1bd
000000a0: 140c a63c abac d9bd 3399 d8bd eb4a 3dbd
000000b0: 98ac bfbd 5f6b bfbd 41b5 fb3d f0be ffba
000000c0: 4845 673d 66ab dabd 9428 9fbd d6ea 09bd
000000d0: ca73 083b 2f6a e4bd e266 81bd d0c1 b2bd
000000e0: dc8c 04bc 9895 edbc 146f 7ebc 43e3 d7bd
000000f0: b5e1 96bd ec40 77bd 4afc 47bd 9ee5 febd
00000100: 4058 f03d b073 eeba c90d d83d db74 663d
00000110: d333 d9bd de42 c33d 6276 37bd 0d28 45bd
00000120: 0425 c0bd da6a 22be 6421 653d efd7 1ebc
00000130: fb4e 6e3d 33b2 d9bd a167 de3d 78d5 b6bd
00000140: b230 8ebc 11a3 e73c c6cb 6e3d 21a4 d63d
00000150: a16e d53d 8aa0 d2bd 1485 043d 09f2 08bd
00000160: b368 a2bc 363f ccbd d80d ed3d 8a82 c5bd
00000170: 3e98 8e3d 2888 003d 3c73 443d 85d2 a0bd
00000180: 5fe7 013e df26 0e3d a6bc 9e3b d80a d5bd
00000190: 041e 4c3d f39b 4fbc ec3c 70bd 89f1 e33d
000001a0: 3263 0e3d 980f c3bd 5000 55bd 9234 aa3c
000001b0: 2f26 933d b79f 02bd 8614 7abd 82b9 49bd
000001c0: bd64 b9bd 5dfc 283d c995 b33d 82de febd
000001d0: df99 cf3c f215 9f3d 18e8 d33c bc07 30bd
000001e0: 0c81 913d d0da 863d 4ef6 5c3d 4b48 32bd
000001f0: 616f 0fbd bff1 273c 37fe f1bc e19c 3cbd
00000200: 32ec 893d 3633 a23d f5e2 21bc f5cc 4abd
00000210: ba03 613b e9ac 88bc 6ce0 3b3d 6d8d 0f3d
00000220: 38ee febd 8cc5 80bc abdd a83d b46b e23c
00000230: 89f0 96bc e63f 91bd 34c8 b8bd d23c eebd
00000240: ae95 3cbd dfc3 2b3d f8d3 b13d 6f09 5c3d
00000250: 4d01 cdbd 4cb0 91bd be8b a1bc 0d26 cd3d
00000260: 24c9 de3c aaca dbbc 2bf9 4c3d 9347 2ebd
00000270: db9c acbd 817f d83d cbab 85bd 367b 4cbc
00000280: d871 0ebe 3485 9b3d 987f de3d 1393 1f3d
00000290: 9196 acbd 8d94 04be 5dba cdbd 8efe b93d
000002a0: 7d71 483d e85b 043e c2c0 4f3d 93d4 44ba
000002b0: e39e 8abb 78e9 c1bd dec4 f2bd ca8d d5bd
000002c0: 717e 3c3d db5b 6cbd 873d 73bc 5d2f 85bd
000002d0: 0de4 8cbc 3080 cfbd 893a afbd 6d7d 253d
000002e0: a936 30bd fe03 923d 0910 42bd 55a8 91bd
000002f0: 2041 abbc 2b88 71bd 7cd9 03bd f736 ddbd
00000300: 8eb5 7c3d 1043 d2bd 9f29 7b3d d7d3 483d
00000310: fd9d b03d 697e dcbd 018d c03d 31e8 63bd
00000320: 5b4f 1a3d 0e8c 0a3e 67b0 ecbc 57f8 96bc
00000330: c904 f6bc d884 cbbd 0afa 353d ee6d 0cbe
00000340: 82ae a13d c848 b33d f47d fc3d ee5c 0dbd
00000350: 88f7 c2bd c829 063d f14b 853d 58d4 0abe
00000360: 8c0f edbc 5bbd 8dbd 28fe 77bc eaf9 68bd
00000370: c449 51bd 2c4a f6bc 5963 febd d4a8 e03d
00000380: abe0 bf3d c537 ddbc 131b ebbb 119d 62bd
00000390: d889 ddbd 198a f6bd d6f9 4d3d ce8c 98bd
000003a0: b6b3 a5bd add9 3d3c d1d7 4bbd c9af 6cbd
000003b0: 5cf2 bd3b 930a efbc 84b5 53bd d62f 5fbd
000003c0: a642 cabd 35e0 de3d bc65 30bd 0d31 213d
000003d0: d56f 37bd 9240 5aba aadf e83d 7617 603d
000003e0: 7244 e9bd a55b 513d c66a e43d 211d 4b3d
000003f0: 3999 b43d 5fd2 fc3d 84b8 d2bb e04a ef3c

bias_ih_l0 f4 [64]
0.101644516 -0.011646191 0.04553086 -0.10315847 0.06714241 0.10933495 0.053820092 -0.05324896
0.098758616 -0.11025635 -0.022744564 -0.034939766 -0.11752213 -0.06272703 -0.10528631 0.03460533
-0.009569455 0.06124284 -0.020555774 0.085899636 0.008429383 0.104182914 0.08795595 -0.09520845
-0.085883774 0.08304773 0.11813988 -0.104664244 -0.0062366244 -0.048406933 0.116261296 0.10168359
0.077608 0.06319384 -0.012569375 0.10098669 -0.06734033 0.008355551 -0.03294665 -0.09716066
-0.057499114 0.028477995 -0.003575297 -0.09614721 -0.0107200155 0.029698247 -0.10466619 0.062577344
-0.09516022 0.002523362 -0.0953875 -0.10659818 -0.030858397 0.102999665 0.12168157 0.037189964
0.080164365 -0.06032212 0.05210544 0.089015 -0.11869639 -0.089224875 0.06701075 0.0034727205
00000000: 002b d03d aacf 3ebc 917e 3a3d bf44 d3bd
00000010: f681 893d 01eb df3d 7572 5c3d 951b 5abd
00000020: f541 ca3d 15ce e1bd cf52 babc 001d 0fbd
00000030: 71af f0bd 0777 80bd 59a0 d7bd 52be 0d3d
00000040: 34c9 1cbc c6d9 7a3d 9564 a8bc 26ec af3d
00000050: 651b 0a3c da5d d53d 4022 b43d a6fc c2bd
00000060: d5e3 afbd ee14 aa3d 52f3 f13d 355a d6bd
00000070: 995c ccbb 5946 46bd 671a ee3d 7c3f d03d
00000080: f1f0 9e3d c66b 813d c8ef 4dbc 1cd2 ce3d
00000090: bae9 89bd b9e5 083c 11f3 06bd 2bfc c6bd
000000a0: 3184 6bbd af4a e93c 884f 6abb d4e8 c4bd
000000b0: 01a3 2fbc bd49 f33c 3a5b d6bd 8d28 803d
000000c0: 5de3 c2bd fd5e 253b 865a c3bd 2650 dabd
000000d0: c0ca fcbc 7df1 d23d 3034 f93d 8154 183d
000000e0: 372d a43d 5414 77bd 846c 553d 7f4d b63d
000000f0: 1817 f3bd 88bb b6bd ef3c 893d 9596 633b

bias_hh_l0 f4 [64]
-0.096680626 -0.09615789 0.087777965 0.009774139 0.00025736884 -0.13094828 0.098401055 -0.08645874
0.05254191 -0.0069023264 -0.0036716964 0.05740849 -0.026137516 -0.026485825 0.085434906 -0.09477594
0.056454167 -0.028425246 -0.03420309 0.06646679 0.015373995 -0.11581169 0.09815282 -0.051227473
0.106123276 -0.031473678 0.12192324 0.038900465 -0.014104604 0.04736733 -0.0053086746 -0.06415485
0.05500867 0.07700336 -0.016504118 0.10322191 -0.00090824655 -0.06392918 -0.06817555 0.07813121
-0.048899222 0.07712132 -0.11384702 -0.009034813 -0.08119693 0.052450478 0.08430554 0.03627432
-0.031865306 -0.11593634 -0.052359484 -0.06760597 0.10403418 -0.077655114 0.05184512 0.09260948
0.028341856 -0.1016792 -0.032468155 -0.024355514 0.08130512 -0.0051591583 0.006414696 0.103118435
00000000: 7e00 c6bd 6eee c4bd efc4 b33d b623 203c
00000010: 76ef 8639 4e17 06be 7e86 c93d 4811 b1bd
00000020: 3036 573d e92c e2bb d8a0 70bb 2a25 6b3d
00000030: 581e d6bc cdf8 d8bc 7ff8 ae3d e319 c2bd
00000040: 7c3c 673d 10dc e8bc 8a18 0cbd be1f 883d
00000050: 35e3 7b3c ae2e edbd 5804 c93d e6d3 51bd
00000060: 2957 d93d 8bea 00bd e4b2 f93d 1856 1f3d
00000070: ff16 67bc 3f04 423d 64f4 adbb 9e63 83bd
00000080: c550 613d f0b3 9d3d a533 87bc 0266 d33d
00000090: 6517 6eba 4ded 82bd 9f9f 8bbd 4103 a03d
000000a0: 8d4a 48bd c8f1 9d3d a028 e9bd c106 14bc
000000b0: 934a a6bd 50d6 563d 62a8 ac3d 6294 143d
000000c0: 3285 02bd 0870 edbd e676 56bd 0075 8abd
000000d0: df0f d53d a509 9fbd 8c5b 543d 0aaa bd3d
000000e0: 2e2d e83c 2f3d d0bd 54fd 04bd 3785 c7bc
000000f0: 4c83 a63d 280e a9bb 5f32 d23b c22f d33d

weight_ih_l1 f4 [64, 64]
0.048098616 0.090360016 -0.03979178 0.09918144 0.022544859 -0.009942819 0.01440154 -0.10378262
0.021644501 0.019149363 -0.09739741 -0.038815785 0.08601407 -0.0036084524 0.016485604 0.017119562
-0.057510756 0.11326308 -0.02293285 -0.037693333 0.047675896 -0.11332564 -0.018951615 0.040338293
-0.041104924 0.05542371 -0.10000889 -0.046331573 -0.053047206 0.09624846 0.06237529 -0.10897526
0.06657982 0.0058738957 0.09738377 0.07770205 -0.080761574 0.122636706 -0.029601863 -0.02799436
0.050004695 0.088640705 0.055614576 -0.091533996 -0.04238548 0.12081669 -0.030060424 -0.07013453
-0.102246575 -0.07743518 -0.08270257 0.018208241 0.049469836 0.13796091 0.09017767 0.008153578
0.07717523 0.07496547 -0.0960816 0.04131951 -0.09402151 0.089920186 -0.05997773 0.01488061
0.019365203 0.09435466 0.017712358 -0.071974814 0.055159163 0.09159006 -0.07575945 -0.086156785
-0.06646748 -0.10817055 0.0043703006 0.042185497 0.00986884 -0.03830407 0.10692957 0.0076052174
-0.07383819 -0.021828478 -0.08433849 -0.036765713 -0.13918568 0.012204891 -0.093624525 0.083789155
0.08222295 -0.10698771 -0.059490092 -0.10964461 0.033740975 0.003107287 -0.05128398 0.0584779
0.07081055 -0.10589624 -0.025076618 -0.04575117 -0.029300567 0.08464063 -0.020999923 -0.08642752
0.10376984 -0.1606026 -0.023603681 0.0796823 0.108470224 0.12547784 -0.01512467 0.029707529
-0.11221979 -0.032888934 -0.05403457 0.023239613 -0.0835308 0.04699294 0.073163055 0.104031704
-0.01117456 0.120235465 -0.10621735 -0.060714334 0.037836988 0.024581663 0.05353392 -0.09931533
0.06197141 -0.14646783 -0.083796285 -0.024854409 -0.12341429 -0.13206708 -0.09628956 0.103500634
0.013683174 0.00073762203 -0.024303775 -0.1360834 -0.12849154 -0.08299306 -0.14091378 0.07805577
-0.043700576 -0.040635716 -0.09999461 0.015423282 -0.004591394 -0.07870083 0.07866686 0.076510556
-0.085391544 0.08007725 -0.024416268 0.0060319793 0.051926877 -0.0066833002 0.09691322 0.08959429
-0.09742138 -0.08320617 -0.110473 0.03406464 -0.088789545 -0.11322269 -0.07554452 -0.12511715
-0.1137229 0.1445141 0.055255823 0.08012889 -0.060456883 -0.05319027 -0.055926137 0.018883422
-0.08953497 0.023935555 -0.068841465 0.028613782 0.117617436 0.0046604504 0.085937195 -0.092558935
-0.024708122 -0.084256396 -0.02313498 -0.025817193 -0.06540646 -0.1176257 -0.039664682 0.031692132
-0.04260644 -0.15357389 0.09577317 0.07258864 -0.07919477 -0.005045786 0.09575986 -0.11377762
-0.12894236 0.1146912 -0.022886815 0.0072694053 -0.06346038 0.028052492 0.05727876 -0.033152416
-0.038959328 -0.1297863 -0.008505155 0.07197636 -0.09794504 -0.0001524282 0.088088244 -0.06926964
-0.042674344 -0.023830371 -0.056780595 0.025530428 -0.12081039 0.06916308 -0.044470765 0.0014263069
-0.0277957 0.06258674 -0.059072115 -0.121544614 -0.08281879 -0.10457973 -0.05370436 0.098449856
-0.11362853 -0.03282368 -0.12213613 -0.095849864 -0.0019608205 -0.07992294 -0.013674051 0.05640676
-0.019550752 0.062314164 0.043739643 0.13242622 -0.004149257 0.088266626 0.08545595 0.053812817
0.06103874 -0.09124683 -0.09584464 0.07833324 0.05415706 0.11849261 -0.010408428 -0.006889019
00000000: 0e03 453d ac0e b93d b5fc 22bd a41f cb3d
00000010: ffaf b83c 35e7 22bc 70f4 6b3c fb8b d4bd
00000020: cf4f b13c 20df 9c3c 4b78 c7bd 4dfd 1ebd
00000030: 2528 b03d c97b 6cbb d10c 873c 533e 8c3c
00000040: 6690 6bbd 79f6 e73d acdd bbbc 5364 1abd
00000050: cd47 433d 4617 e8bd 6b40 9bbc c439 253d
00000060: a35d 28bd f903 633d 76d1 ccbd 2dc6 3dbd
00000070: 0748 59bd ea1d c53d 3b7d 7f3d 6c2e dfbd
00000080: 005b 883d cf79 c03b 2471 c73d 4122 9f3d
00000090: 5366 a5bd f428 fb3d 9b7f f2bc 6e54 e5bc
000000a0: b9d1 4c3d 4289 b53d 1ccc 633d 2d76 bbbd
000000b0: 669c 2dbd be6e f73d 4741 f6bc b1a2 8fbd
000000c0: a766 d1bd 5696 9ebd f75f a9bd 7329 953c
000000d0: e2a0 4a3d a045 0d3e 12af b83d 9696 053c
000000e0: 0c0e 9e3d 7f87 993d 6ec6 c4bd a63e 293d
000000f0: 598e c0bd 1328 b83d 35ab 75bd cdcd 733c
00000100: c6a3 9e3c 043d c13d 8219 913c 8867 93bd
00000110: 93ee 613d 9293 bb3d c527 9bbd f872 b0bd
00000120: 1a20 88bd 8588 ddbd bd34 8f3b b3ca 2c3d
00000130: eab0 213c bae4 1cbd e4fd da3d 3035 f93b
00000140: 7a38 97bd a3d1 b2bc a9b9 acbd a597 16bd
00000150: b186 0ebe 06f7 473c 37be bfbd a699 ab3d
00000160: 8264 a83d 5f1c dbbd e2ab 73bd 5a8d e0bd
00000170: fa33 0a3d a0a3 4b3b 270f 52bd 8686 6f3d
00000180: 1f05 913d 21e0 d8bd 7b6d cdbc 9465 3bbd
00000190: be07 f0bc 1158 ad3d 0808 acbc e900 b1bd
000001a0: 4885 d43d 0275 24be 825c c1bc 7930 a33d
000001b0: a325 de3d 437d 003e 77cd 77bc 345d f33c
000001c0: 7dd3 e5bd 8cb6 06bd 5a53 5dbd 0061 be3c
000001d0: 3212 abbd ab7b 403d 83d6 953d 930e d53d
000001e0: 8015 37bc 033e f63d 7b88 d9bd 98af 78bd
000001f0: f5fa 1a3d 7c5f c93c 6246 5b3d d665 cbbd
00000200: bcd5 7d3d aafb 15be 639d abbd 799b cbbc
00000210: a2c0 fcbd 983c 07be 7633 c5bd 24f8 d33d
00000220: 642f 603c fa5c 413a b618 c7bc 7259 0bbe
00000230: 4993 03be 44f8 a9bd b44b 10be b4db 9f3d
00000240: 60ff 32bd a371 26bd f9c9 ccbd efb1 7c3c
00000250: 6873 96bb e72d a1bd 171c a13d 91b1 9c3d
00000260: c3e1 aebd 8bff a33d a004 c8bc e9a7 c53b
00000270: 47b1 543d 96ff dabb 707a c63d 367d b73d
00000280: dc84 c7bd ff67 aabd ab3f e2bd 5d87 0b3d
00000290: 4bd7 b5bd 4ce1 e7bd 16b7 9abd b61e 00be
000002a0: 8de7 e8bd 81fb 133e ee53 623d 9e1a a43d
000002b0: a3a1 77bd 0ade 59bd ce12 65bd 68b1 9a3c
000002c0: 1c5e b7bd 7f14 c43c c1fc 8cbd 7367 ea3c
000002d0: 69e1 f03d b1b6 983b d7ff af3d 8a8f bdbd
000002e0: b068 cabc 9e8e acbd 9285 bdbc 947e d3bc
000002f0: d2f3 85bd bee5 f0bd 6f77 22bd 9ccf 013d
00000300: 1784 2ebd 7942 1dbe b924 c43d 5aa9 943d
00000310: de30 a2bd 1f57 a5bb bf1d c43d 3e04 e9bd
00000320: 7709 04be 38e3 ea3d 217d bbbc 3134 ee3b
00000330: 84f7 81bd 57ce e53c 229d 6a3d d4ca 07bd
00000340: d193 1fbd b3e6 04be 3559 0bbc 5868 933d
00000350: 6997 c8bd 22d5 1fb9 9c67 b43d 3edd 8dbd
00000360: 4bcb 2ebd e937 c3bc c592 68bd 3025 d13c
00000370: 706b f7bd 5fa5 8d3d fa26 36bd ebf2 ba3a
00000380: cfb3 e3bc 7a2d 803d 9af5 71bd 62ec f8bd
00000390: e69c a9bd e62d d6bd 1af9 5bbd 14a0 c93d
000003a0: 13b6 e8bd 2072 06bd 8222 fabd ef4c c4bd
000003b0: 1c81 00bb a3ae a3bd 2009 60bc c60a 673d
000003c0: e628 a0bc 233d 7f3d 5728 333d bd9a 073e
000003d0: 7ef6 87bb 22c5 b43d 8703 af3d d46a 5c3d
000003e0: c203 7a3d 9edf babd 324a c4bd 2d6d a03d
000003f0: cbd3 5d3d 41ac f23d 1c88 2abc 48bd e1bb

weight_hh_l1 f4 [64, 64]
0.12665166 0.036639743 0.1086342 0.036532573 0.0067562885 0.059547577 0.08325269 -0.022009285
0.025837675 -0.010531028 0.080775194 0.055260412 -0.030432535 0.11921932 0.1289624 0.103886664
0.0091175 0.010799577 -0.06875316 0.09930647 -0.09560876 -0.09799501 0.03983347 -0.11205194
0.046129245 -0.05214501 -0.018878179 -0.046712223 0.08821959 -0.0887149 0.029941594 -0.00035213842
-0.10733679 0.10174421 0.03312467 -0.08856763 -0.12172487 0.058134753 0.10196976 -0.018676633
-0.03289422 -0.10387119 0.09769653 -0.053113095 -0.064689435 0.03916742 0.11300296 0.05365818
0.042726487 0.10826176 -0.010743356 0.012022341 -0.008029729 -0.08548634 0.025715288 -0.06050893
0.07485964 -0.09268794 -0.10747845 -0.02050144 0.099749975 -0.09486089 -0.04379049 -0.0092440145
-0.05062131 0.061571043 0.105987236 0.058536734 -0.022185713 -0.10563313 -0.09174769 -0.04082536
-0.032359794 -0.09960702 0.025914721 -0.048767302 0.02678479 -0.06339719 -0.0021526625 -0.035698958
0.062782146 -0.11107721 -0.051328637 0.03490855 -0.041060034 0.009640294 0.086434945 0.02255177
0.0219822 0.044431172 -0.08569158 -0.04810111 0.048464954 0.021888105 0.08839612 -0.017856559
0.12925631 0.0783172 -0.027477356 -0.05117549 0.027778933 -0.101331 -0.057632513 0.047811538
0.014935903 0.059666075 -0.038631484 0.09940267 -0.075950116 -0.07270922 0.08748955 -0.026912777
0.045388725 -0.024270391 -0.105829075 -0.0101132635 0.057508163 0.07725342 0.09818406 0.0004525345
0.09499526 0.02880057 -0.001245967 0.0064675193 -0.0054920968 0.031653307 -0.009681111 0.08001239
-0.020919478 -0.069791704 0.036430605 -0.06394706 0.07558278 0.10719371 0.004151859 -0.010987504
-0.009660514 0.061323922 -0.0932319 -0.033090692 -0.06599726 -0.113142475 -0.0983275 -0.08066664
0.10919403 0.07538191 -0.0844509 -0.10691095 0.11554601 0.019062672 0.057057798 0.016694859
-0.052640922 -0.07293675 0.08530378 -0.1226179 -0.09369009 0.03585341 -0.037221637 0.02397316
0.054929294 -0.07403048 -0.07715351 -0.088158585 -0.109950475 -0.009513969 0.10523224 -0.014518829
0.06636012 -0.06595904 -6.54645e-05 -0.090507075 -0.0037698655 0.036256578 -0.055359747 0.11544529
0.028003614 0.06303341 0.1421515 0.05786748 -0.014803267 0.06423702 0.1231211 -0.122442015
-0.026145658 0.06460452 -0.027497195 -0.103200026 -0.07943825 -0.06563492 0.05247888 0.07732053
-0.017817581 -0.1048135 0.020502761 0.04452245 -0.05137898 0.050702747 -0.06425848 0.054282192
0.082411185 0.06600476 -0.007311354 0.12139305 -0.0009629047 -0.11355613 0.08055852 0.114755236
0.07077842 0.105795324 0.068709664 0.042839132 0.07826416 -0.10768887 -0.0033684974 -0.058623545
0.027509665 -0.11834296 0.026109593 0.046982273 -0.03373029 -0.05408786 -0.08785143 0.035844292
-0.11680146 -0.029373074 0.00013611623 0.022832664 -0.10954573 0.022409195 -0.04900578 -0.024762116
-0.09515726 -0.10152982 0.0033693532 0.02645198 0.1141805 0.12663248 0.08750014 0.05068579
0.075717606 0.054841835 -0.098749734 0.097932264 0.012131269 -0.024555024 -0.039311968 0.0955148
0.08282046 -0.0054304563 -0.04148389 -0.07123489 0.065676376 -0.07342721 -0.0805238 -0.073876165
00000000: f9b0 013e 8e13 163d 9c7b de3d 2ea3 153d
00000010: db63 dd3b 29e8 733d 6380 aa3d d14c b4bc
00000020: 88a9 d33c 558a 2cbc 776d a53d be58 623d
00000030: a74d f9bc 4229 f43d b80e 043e 88c2 d43d
00000040: 9161 153c b6f0 303c 75ce 8cbd 3161 cb3d
00000050: 87ce c3bd 9cb1 c8bd 6c28 233d 7d7b e5bd
00000060: 05f2 3c3d 0296 55bd 69a6 9abc 5155 3fbd
00000070: 79ac b43d 28b0 b5bd 1348 f53c 389f b8b9
00000080: 64d3 dbbd 455f d03d bcad 073d f262 b5bd
00000090: e34a f9bd b51e 6e3d 86d5 d03d bdff 98bc
000000a0: 17bc 06bd 6bba d4bd 1e15 c83d 1e8d 59bd
000000b0: e57b 84bd 046e 203d 196e e73d aec8 5b3d
000000c0: f801 2f3d 57b8 dd3d e704 30bc 5af9 443c
000000d0: 208f 03bc 7613 afbd dea8 d23c 36d8 77bd
000000e0: 0350 993d 2dd3 bdbd a91d dcbd a3f2 a7bc
000000f0: b749 cc3d 6d46 c2bd a85d 33bd 3574 17bc
00000100: 4a58 4fbd eb31 7c3d d60f d93d 37c4 6f3d
00000110: d0be b5bc 2f56 d8bd 37e6 bbbd 7e38 27bd
00000120: b48b 04bd c4fe cbbd 1c4b d43c 39c0 47bd
00000130: c76b db3c 63d6 81bd af13 0dbb 1239 12bd
00000140: ed93 803d 737c e3bd fa3d 52bd 45fc 0e3d
00000150: 912e 28bd 53f2 1d3c ce04 b13d 7dbe b83c
00000160: 0414 b43c 76fd 353d 117f afbd ab05 45bd
00000170: 3083 463d af4e b33c 0609 b53d eb47 92bc
00000180: c45b 043e c564 a03d 3118 e1bc 649d 51bd
00000190: a590 e33c a186 cfbd 1210 6cbd 08d6 433d
000001a0: b8b5 743c 6a64 743d 0c3c 1ebd a193 cb3d
000001b0: bc8b 9bbd 92e8 94bd b92d b33d 2f78 dcbc
000001c0: 87e9 393d b3d2 c6bc eabc d8bd 1ab2 25bc
000001d0: ae8d 6b3d 0b37 9e3d b914 c93d 2742 ed39
000001e0: e08c c23d 2cef eb3c b74f a3ba 7ced d33b
000001f0: 0cf7 b3bb e6a6 013d 869d 1ebc 89dd a33d
00000200: 535f abbc f4ee 8ebd 4238 153d adf6 82bd
00000210: 25cb 9a3d 6088 db3d 510c 883b ef04 34bc
00000220: 2247 1ebc cb2e 7b3d 5ef0 bebd 1b8a 07bd
00000230: 9229 87bd 3eb7 e7bd ee5f c9bd 8d34 a5bd
00000240: 1fa1 df3d d561 9a3d 98f4 acbd 21f4 dabd
00000250: 63a3 ec3d 5229 9c3c 70b5 693d a8c3 883c
00000260: 029e 57bd dd5f 95bd c0b3 ae3d 181f fbbd
00000270: 97e0 bfbd 06db 123d b775 18bd 5c63 c43c
00000280: 8afd 603d 4b9d 97bd a902 9ebd 7d8c b4bd
00000290: b72d e1bd 7ae0 1bbc 0084 d73d 62e0 6dbc
000002a0: d1e7 873d 8815 87bd fc49 89b8 c65b b9bd
000002b0: d90f 77bb c781 143d e7c0 62bd 956e ec3d
000002c0: d667 e53c a917 813d 2a90 113e 7306 6d3d
000002d0: 6789 72bc b38e 833d ea26 fc3d e1c2 fabd
000002e0: 6b2f d6bc 604f 843d cc41 e1bc 895a d3bd
000002f0: 85b0 a2bd 9a6b 86bd 18f4 563d 3a5a 9e3d
00000300: 2df6 91bc 76a8 d6bd 68f5 a73c 2c5d 363d
00000310: c472 52bd afad 4f3d f399 83bd 0157 5e3d
00000320: 32c7 a83d 812d 873d 1594 efbb eb9c f83d
00000330: 716b 7cba 1e90 e8bd defb a43d cb04 eb3d
00000340: 47f4 903d 38ab d83d a7b7 8c3d 1678 2f3d
00000350: f648 a03d fb8b dcbd 02c2 5cbb 3e1f 70bd
00000360: f35b e13c cb5d f2bd c9e3 d53c 7c70 403d
00000370: c628 0abd 3b8b 5dbd 73eb b3bd 77d1 123d
00000380: 9b35 efbd cd9f f0bc 6cba 0e39 910b bb3c
00000390: 8359 e0bd 7d93 b73c 49ba 48bd ecd9 cabc
000003a0: cfe1 c2bd deee cfbd 5ed0 5c3b d3b1 d83c
000003b0: 77d7 e93d f2ab 013e 4633 b33d e79b 4f3d
000003c0: d511 9b3d d5a1 603d 4d3d cabd b690 c83d
000003d0: 3bc2 463c 9e27 c9bc 9605 21bd 439d c33d
000003e0: c69d a93d f8f1 b1bb 03eb 29bd 99e3 91bd
000003f0: 5681 863d 0161 96bd a9e9 a4bd 634c 97bd

bias_ih_l1 f4 [64]
-0.0015892664 -0.076012634 -0.05869301 0.017783334 -0.05176221 0.040006466 0.009068677 -0.09507376
0.075111784 -0.044420425 -0.053429898 -0.05009698 0.05359162 -0.11737377 -0.0976021 0.058068532
-0.02990643 -0.02094607 -0.09919212 0.0035463718 0.05389669 -0.050406825 0.016417185 0.009793967
-0.03743136 0.10706537 0.042711347 0.010088269 0.0050050947 0.0030555783 0.07069111 -0.001737007
0.021245228 0.0858871 0.07794902 -0.05601296 -0.09728191 0.03900201 -0.09258245 -0.13367791
0.090749614 -0.11222022 0.11244555 -0.12098053 -0.10666354 0.07725816 0.01500077 -0.043360915
0.04553295 -0.08801231 -0.06077333 -0.101580344 -0.072620496 -0.11080592 0.111301094 -0.046647586
0.029289676 -0.058411166 -0.034680568 0.09840172 0.015752127 0.0516082 0.052285727 -0.10899067
00000000: ee4e d0ba 83ac 9bbd 1568 70bd 5bae 913c
00000010: 9c04 54bd d2dd 233d ca94 143c 08b6 c2bd
00000020: 35d4 993d 31f2 35bd 4fd9 5abd 7e32 4dbd
00000030: e382 5b3d a961 f0bd 9ce3 c7bd 45d9 6d3d
00000040: 54fe f4bc 1897 abbc 3d25 cbbd 3f6a 683b
00000050: c7c2 5c3d 6377 4ebd 557d 863c e076 203c
00000060: a051 19bd 1745 db3d 18f2 2e3d 4449 253c
00000070: c701 a43b 1940 483b 80c6 903d 49ac e3ba
00000080: 790a ae3c 93e5 af3d bca3 9f3d d86d 65bd
00000090: bd3b c7bd 92c0 1f3d de9b bdbd dde2 08be
000000a0: efda b93d b7d3 e5bd da49 e63d a4c4 f7bd
000000b0: 6a72 dabd 8739 9e3d cac5 753c 379b 31bd
000000c0: c280 3a3d cc3f b4bd 75ed 78bd 5b09 d0bd
000000d0: 0eba 94bd 37ee e2bd d4f1 e33d 8a11 3fbd
000000e0: e7f0 ef3c 8c40 6fbd 360d 0ebd d786 c93d
000000f0: 9b0a 813c 1f63 533d 8f29 563d 8036 dfbd

bias_hh_l1 f4 [64]
0.0817553 0.10744221 0.033315387 0.09377843 -0.06038545 -0.08627763 -0.10894102 -0.008431583
-0.005568422 -0.060432583 -0.051015522 -0.044347398 0.12475549 -0.0030421098 0.09381944 0.019804792
0.052510064 0.07480515 -0.10193431 -0.06547403 -0.099930905 0.11614614 0.0527349 -0.04614228
-0.10522681 0.07546399 0.039536566 -0.075167134 -0.08182505 -0.059559524 0.03400727 -0.11416976
-0.020231111 0.05863482 0.05633321 0.003351544 0.018355161 0.03528472 0.041610982 0.089299284
0.03886668 0.06009918 0.076200545 -0.10278776 -0.07160145 0.074021585 0.03039952 -0.061032724
0.03502419 -0.12043321 -0.038386 0.08183367 -0.011885183 -0.08791446 0.06597777 0.016379245
-0.009807637 -0.12244148 -0.051132716 0.020893393 -0.077616215 0.012292427 -0.077355035 0.0893421
00000000: 536f a73d a90a dc3d b775 083d e80e c03d
00000010: bc56 77bd 53b2 b0bd 781c dfbd 9f24 0abc
00000020: 4f77 b6bb 2888 77bd a7f5 50bd 9ea5 35bd
00000030: ce7f ff3d 225e 47bb 6824 c03d a93d a23c
00000040: cb14 573d 7133 993d efc2 d0bd 4017 86bd
00000050: 93a8 ccbd 07de ed3d 8d00 583d b0ff 3cbd
00000060: 2781 d7bd dd8c 9a3d 18f1 213d 3af1 99bd
00000070: e493 a7bd b0f4 73bd 354b 0b3d d6d1 e9bd
00000080: b7bb a5bc 112b 703d a7bd 663d 94a5 5b3b
00000090: 905d 963c b686 103d 4770 2a3d 8be2 b63d
000000a0: ab32 1f3d 8f2a 763d 080f 9c3d 6482 d2bd
000000b0: c8a3 92bd a198 973d 6a08 f93c 73fd 79bd
000000c0: 8675 0f3d b0a5 f6bd a33a 1dbd 6998 a73d
000000d0: 12ba 42bc 7f0c b4bd 5a1f 873d c42d 863c
000000e0: 36b0 20bc 99c2 fabd 8a70 51bd 9f28 ab3c
000000f0: 40f5 9ebd 2d66 493c 516c 9ebd fef8 b63d

weight f4 [1, 64]
0.10348553 0.08305637 -0.02126096 -0.14051235 -0.042557493 -0.021564843 -0.1067156 0.090999626
0.047027998 0.092521906 -0.12008066 -0.0682133 0.017775726 0.003409383 -0.06652024 0.0966104
0.03976861 0.00075183174 0.11888428 -0.11865497 -0.12425377 0.040415462 0.11948711 0.08001839
-0.06558934 0.100694254 0.04796341 0.009923928 0.06484898 0.031551443 0.010859888 -0.039361313
-0.05779821 -0.07528131 -0.009921855 -0.07463393 0.05988261 0.042649932 -0.12568486 -0.08084343
0.098218456 -0.06621317 0.014878915 -0.0887177 -0.03747658 0.053767 0.040450647 0.061026443
0.001497938 -0.10568669 -0.02325772 0.067305215 0.03701964 0.015769893 0.029570932 0.11178103
0.07651963 -0.030661196 -0.07796664 0.1105589 -0.06477579 -0.099927366 0.03847859 -0.08616936
00000000: 39f0 d33d 7519 aa3d 772b aebc 78e2 0fbe
00000010: c450 2ebd c1a8 b0bc b58d dabd 035e ba3d
00000020: 6ea0 403d 207c bd3d d9ec f5bd 6ab3 8bbd
00000030: 669e 913c f46f 5f3b c33b 88bd acdb c53d
00000040: 69e4 223d 9316 453a 9a79 f33d 6001 f3bd
00000050: c378 febd af8a 253d a8b5 f43d afe0 a33d
00000060: b453 86bd ca38 ce3d 4875 443d f997 223c
00000070: 8bcf 843d 163c 013d aced 313c 5439 21bd
00000080: d1bd 6cbd 162d 9abd 478f 22bc add9 98bd
00000090: 7847 753d b2b1 2e3d 88b3 00be 3d91 a5bd
000000a0: c226 c93d c59a 87bd b1c6 733c a0b1 b5bd
000000b0: 0b81 19bd c93a 5c3d 94af 253d ddf6 793d
000000c0: 7556 c43a 4372 d8bd f986 bebc 51d7 893d
000000d0: e8a1 173d dd2f 813c bd3e f23c 74ed e43d
000000e0: 53b6 9c3d 302d fbbc f9ac 9fbd b46c e23d
000000f0: 2ba9 84bd b8a6 ccbd ba9b 1d3d 9079 b0bd
