mlartifacts/635037021632314375/770225537931479da785a6032b8bd1d9/artifacts/latest_model/data/model.pth (torch, 57372 bytes, 9 tensors)

weight_ih_l0 f4 [64, 1]
00000000: 1845 c33d cf7b d43d d545 4dbd 6e14 eb3d
00000010: 2d16 38bd 122e 0a3d 63df 8bbd 1308 c23d
00000020: ccac e13d 1e3e c9bd a483 de3d f606 b63c
00000030: 005d d03d 6da0 013d fba3 903d 6b20 05bd
00000040: 9c01 da3d 0c77 0f3d 7019 81bd e370 d63c
00000050: 6fca 9cbd 2a90 febc cfa6 8cbd d512 ce3d
00000060: 5ab5 d6bd 15ec 9cbd 7762 52bd 5159 c0bd
00000070: 2280 1abc 8ad8 fcbd 2832 e73d 76a5 d9bd
00000080: 96a3 c53d 912a 0f3d 6cda 60bd 8dd3 173d
00000090: bef2 903c 90e3 e23d 5bb6 de3c 8972 65bd
000000a0: 0115 5b3d 2ea3 6ebd 7182 903d fe8f e43d
000000b0: 2662 b63d f795 90bd efbf 9b3c a591 bfbb
000000c0: 68ed af3d a621 c5bd a46a fdbd 6ab5 8cbd
000000d0: 7732 e0bd a70f d23d 4cdb 593d aac6 8c3d
000000e0: 2995 223d ae0c 7d3c 1204 c83d 0214 ccbd
000000f0: 6bf1 3ebc 3d99 bfbd 0d0f 673d 620c 77bd
0.09534663 0.10375177 -0.050115425 0.11478506 -0.044943023 0.033735342 -0.06829717 0.09474196
0.110192865 -0.09826301 0.10864952 0.022220116 0.10173988 0.031647135 0.07062527 -0.03250162
0.10644838 0.03502564 -0.0630368 0.026176875 -0.07655799 -0.031074602 -0.06867754 0.10062186
-0.10483809 -0.076622166 -0.051363435 -0.09392036 -0.009429963 -0.12345989 0.112888634 -0.10627262
0.09650342 0.034952704 -0.054895803 0.037066985 0.017693873 0.1107856 0.027186563 -0.056017432
0.053486828 -0.05826109 0.0705613 0.11160277 0.08905439 -0.070598535 0.01901242 -0.0058462196
0.085902035 -0.096255586 -0.12373856 -0.068705395 -0.109471254 0.10256892 0.053187653 0.0687383
0.03969303 0.015444918 0.09766401 -0.09964754 -0.011654238 -0.093554 0.056410838 -0.060314544

weight_hh_l0 f4 [64, 64]
00000000: 15d0 1c3d 327c d5bc b15b d43d 4ec4 97bd
00000010: f5a4 98bd 49b5 98bd d44a e63d 628d 2a3d
00000020: 124d f63d 503c d3bd 96f4 fdbd 2740 c8bd
00000030: 583e acbd 666a 4f3d 3743 373d e5bf d43d
00000040: 723d 84bd fd8b aebd f3dc 873d 76da 4ebd
00000050: 5968 9b3d 2adc f2bc 957a 923d 5ef0 c6bd
00000060: bc27 81bd 452b 1c3d 529d d83c 7177 02bd
00000070: 936a 983d f810 ae3d f4ad b9bd 98a2 88bd
00000080: d45f ea3d 59cb 2cbd af70 35bd b8c7 f7bd
00000090: 649b 92bd cea7 ff3c df13 87bc c7ca b9bd
000000a0: 3508 3f3b 73d5 aebd 8339 d9bd 3801 8dbd
000000b0: e416 e0bd 49f8 a2bd 51ce ff3d 86e8 c03c
000000c0: 99b4 1d3d 69bb eebd 5619 a8bd 9359 2abd
000000d0: 7a44 a03c 844b e1bd c6ad 5cbd 534b 99bd
000000e0: 7932 ae39 5072 3ebd 8234 0ebc 2670 adbd
000000f0: c2c3 afbd d450 95bd ed53 2fbd 5905 cabd
00000100: f6a5 d63d 263a cbbc f642 dc3d b087 1f3d
00000110: b0c7 d8bd 3829 b13d c8df 0cbd 5043 44bd
00000120: 807f d4bd 5081 febd 187d 123d c0af dfbc
00000130: 5c55 473d 0017 d2bd d60f be3d f2ea bbbd
00000140: 46d1 b0bc f2e1 d53c 1429 843d e4ab ce3d
00000150: a034 e93d f2fc cabd 88da 003d 7839 5cbd
00000160: 086e 60bc 0c9d bfbd 082e e93d 2ee4 bbbd
00000170: ccd1 883d e4ef 333d a060 263d ca67 8abd
00000180: 0cb1 e83d 4206 e13c 36ba 833c ea99 e1bd
00000190: 84ee 563d fe9e 99bc 448f 6abd ece3 db3d
000001a0: b24c e43c 86a3 8dbd 5292 81bd 6d9b c3bb
000001b0: c4f0 8e3d 54d5 02bd 3211 92bd ac54 2fbd
000001c0: 4c40 bfbd 8898 363d 8027 c63d 3c02 f1bd
000001d0: 1ed3 ed3c 5c3f 843d 6aae b93c f855 36bd
000001e0: 009e 853d 0888 863d 6473 3f3d 52f0 b3bc
000001f0: 0894 07bd c818 5b3c cee4 b4bc 9893 18bd
00000200: 37fa 703d a3db b03d bae6 0e3c 87ee 48bd
00000210: 0de3 bb3c 2feb e7bc cd60 513d 31bb 643c
00000220: b2d4 09be 354d cdbc d36f ac3d dcb1 ee3c
00000230: 3986 dfbc 8e1a cabd 2ac5 c7bd 3f0e babd
00000240: 7630 7dbd 5fd1 ab3c 0361 ce3d f30f 1d3d
00000250: 1a24 b7bd af66 5dbd f3ee af3a 3f7e cc3d
00000260: 765c 203d 8e2d 39bc ea2f 953d fb6d d9bc
00000270: 3c49 c3bd ddff e53d 508d 9fbd 35bd 82bb
00000280: afe8 14be cd08 7e3d 131a ed3d 1af4 c93c
00000290: ec1e d4bd fce6 13be 3981 ffbd 6610 ea3d
000002a0: 5e74 1f3d a549 013e a5ec 353d 8025 2d3c
000002b0: f19e b6bc ed89 97bd 0df6 02be 76ad 01be
000002c0: c197 f63c 1b14 25bd 35f5 85bb 355c 50bd
000002d0: 350f e0ba 7f54 dfbd 7b6f d2bd 1612 a73c
000002e0: 5bf1 6dbd 4323 5f3d f68c 7abd 19a5 90bd
000002f0: e7fe c1bb f8e4 21bd 82f8 72bd c68e c8bd
00000300: 663a 8f3d dc3a b2bd f1ab 803d a555 683d
00000310: 73e5 b63d e35d c4bd ae1d b83d 430d 72bd
00000320: 05fc 3d3d 386a f03d 0b6c 90bc 0191 7dba
00000330: f3c2 ebbc a2c1 d5bd 11b5 753d 5f22 febd
00000340: 58ec 9e3d 518b bf3d 361a f23d fe8b f1bc
00000350: ba56 d2bd 443b e63c 466c 8d3d f4cc febd
00000360: 056d e8bc 8475 99bd cb1d 33bc a502 7cbd
00000370: db4a 51bd 3589 22bd 8647 f3bd 2e0d d23d
00000380: 7a9c d63d 2da3 a0bc 7538 69bc e0f5 50bd
00000390: 932f e7bd 6420 f9bd e949 3e3d e68d 8cbd
000003a0: fa93 a4bd 17c8 1fbc 3381 2abd 47a5 25bd
000003b0: 6797 833b 9d32 d9bc 804a 30bd a326 75bd
000003c0: 6457 d0bd cea8 d63d 91e4 4cbd 27ac 073d
000003d0: c1a4 31bd c669 263c d8aa ee3d 15e3 6b3d
000003e0: e0d9 ddbd bf36 4b3d 2e01 f33d 9fb3 063d
000003f0: fca0 ab3d 8663 fc3d 71e9 9cbc 8b8a d43c
0.03828438 -0.026060198 0.10369051 -0.07410489 -0.07453338 -0.074564524 0.11244741 0.04163874
0.12026419 -0.10314238 -0.12400167 -0.09777861 -0.084103286 0.05063858 0.044741835 0.103881635
-0.06457032 -0.085227944 0.066339396 -0.05050131 0.07588262 -0.029645998 0.07152287 -0.09713815
-0.06306407 0.038127203 0.026442204 -0.03185219 0.074422024 0.0849933 -0.09066382 -0.06671637
0.11444059 -0.042186115 -0.044296917 -0.1209864 -0.07158545 0.031207945 -0.016488967 -0.0907188
0.002914918 -0.08536806 -0.106066726 -0.06884998 -0.10941866 -0.07957513 0.124905236 0.023548376
0.03850231 -0.116568394 -0.082079574 -0.04158933 0.019563902 -0.110007316 -0.05387666 -0.0748507
0.0003322547 -0.046495736 -0.008679511 -0.08468656 -0.0858226 -0.07290807 -0.042804647 -0.09864301
0.10480873 -0.024808 0.10754959 0.03894776 -0.10584962 0.0865044 -0.034393102 -0.047915757
-0.10375881 -0.12427008 0.03576383 -0.027305484 0.04866539 -0.10258293 0.09280364 -0.09175672
-0.021584164 0.026108716 0.064531475 0.10091379 0.113869905 -0.09911527 0.031458408 -0.053765744
-0.0136981085 -0.09356126 0.11385733 -0.09174381 0.066806406 0.04392995 0.040619493 -0.067580774
0.11361894 0.027468804 0.016080003 -0.11015685 0.05247356 -0.018752571 -0.057265535 0.10736832
0.027868602 -0.06915955 -0.063267365 -0.005969456 0.06979516 -0.031941727 -0.07132186 -0.04280536
-0.093384355 0.04457906 0.09675503 -0.11768004 0.029031333 0.06457397 0.022666175 -0.04451558
0.06524277 0.06568915 0.046740904 -0.02196518 -0.033100158 0.0133726075 -0.022081759 -0.03725013
0.058832373 0.086356424 0.008722002 -0.049055602 0.022935415 -0.028310386 0.051117707 0.0139606455
-0.13460043 -0.02506123 0.08419766 0.029137544 -0.027285682 -0.09868346 -0.09754403 -0.090847485
-0.061813794 0.02097386 0.10077097 0.03834529 -0.08942433 -0.054053005 0.0013422653 0.09985017
0.039150678 -0.011302365 0.072845295 -0.0265417 -0.09535453 0.11230443 -0.07790625 -0.0039898404
-0.14541887 0.06202011 0.11577239 0.02465253 -0.103574604 -0.14443582 -0.12475819 0.11428909
0.038929336 0.1262575 0.044415135 0.010568023 -0.022292586 -0.07399354 -0.12789173 -0.12663826
0.030101659 -0.040302377 -0.004088069 -0.050869185 -0.0017094376 -0.10904788 -0.102751695 0.020394366
-0.058091503 0.054476988 -0.061169587 -0.0706274 -0.0059202793 -0.039525002 -0.059319027 -0.09792857
0.069935605 -0.08702633 0.06282795 0.056722302 0.08930483 -0.0958822 0.08990036 -0.05909468
0.046382923 0.117390096 -0.017629644 -0.00096727913 -0.028779482 -0.10437323 0.05998713 -0.124088995
0.07759923 0.09352744 0.118214056 -0.029485699 -0.10270448 0.028104432 0.06905417 -0.124414355
-0.028372297 -0.074931175 -0.010932396 -0.06152596 -0.05109678 -0.039681632 -0.118788764 0.1025642
0.10479064 -0.019609058 -0.014234652 -0.051015735 -0.11288371 -0.12164381 0.046457205 -0.068630025
-0.08036037 -0.009752295 -0.04162712 -0.040440824 0.0040158513 -0.026513392 -0.0430398 -0.0598513
-0.101729184 0.10481416 -0.050022665 0.03312316 -0.043370012 0.010157054 0.116536796 0.05758961
-0.10832572 0.049612757 0.118654594 0.032886144 0.08380315 0.1232367 -0.019154282 0.025944969

bias_ih_l0 f4 [64]
00000000: 7eda e83d e87b 67bc ed64 dd3c 7852 cbbd
00000010: 5d75 493d f676 033e 93c5 613d 6b5d 3ebd
00000020: c0b8 d03d 0ea6 f2bd d0c0 75bc 48be fdbc
00000030: b6ee febd 6e11 65bd 305c b8bd af12 953c
00000040: 35cd 27bc 1622 993d 3239 fcbc 8229 c93d
00000050: fb1e 6e3b 8a1b b13d c5df b03d 1fbb d7bd
00000060: 3f19 acbd 2e65 803d b722 d13d 5f11 dcbd
00000070: e052 a4bc 14d8 44bd b603 f13d e0a9 d43d
00000080: 4651 ba3d 7a8d a73d 06e9 c2bc c829 e23d
00000090: b329 6bbd 4a61 d03b 3e6c 9cbc 3403 ddbd
000000a0: c18c 1ebd e8db 613c 7682 e039 5e96 a9bd
000000b0: 2faf 78bc c379 2e3c 3edb 81bd df27 423d
000000c0: d04c d4bd 4912 78ba f469 d1bd 5b06 ffbd
000000d0: 133b 83bc d856 e83d 60ae 0a3e 5797 6f3d
000000e0: f749 c83d 5b91 4ebd c51e 903d f57c 9a3d
000000f0: fe58 0ebe 6ced c5bd b6b1 933d c674 a8bb
0.11369799 -0.014128663 0.027025664 -0.09927839 0.049184192 0.12838349 0.055120062 -0.04647581
0.10191488 -0.11848079 -0.014999583 -0.030974522 -0.12447874 -0.055924825 -0.09001958 0.018197386
-0.010241796 0.074772045 -0.030788992 0.0982237 0.0036334384 0.08647831 0.08636431 -0.105337374
-0.08403253 0.062692985 0.102116995 -0.10745501 -0.02005905 -0.04805763 0.11768286 0.103839636
0.09097533 0.081812814 -0.023792755 0.110431254 -0.057412814 0.006359254 -0.019094583 -0.107916266
-0.038708452 0.01378534 0.0004282181 -0.082806334 -0.015178486 0.010649147 -0.06340645 0.047401305
-0.10366213 -0.0009463174 -0.10225287 -0.12452384 -0.01601938 0.11344689 0.13543081 0.05849394
0.09779733 -0.05043159 0.07037119 0.07543365 -0.13901135 -0.09664425 0.0721163 -0.0051408736

bias_hh_l0 f4 [64]
00000000: 0051 adbd f203 cabd cfde 8d3d 66b7 5f3c
00000010: 5a01 91bc cb2b e5bd 1c30 cc3d 3532 a3bd
00000020: 0c24 643d 9ed4 77bc a078 853b 0b63 7b3d
00000030: 688d 07bd a93f a1bc a83c ce3d 5cb4 e3bd
00000040: c97b 643d b60e 74bc b402 36bd 1a5d a13d
00000050: 864f 2d3c 67b8 08be ddc1 c53d 1551 7bbd
00000060: bf21 dd3d ff49 54bd 4de2 d83d 12e8 133d
00000070: 34c7 e4bc 8472 433d 40bf 7ebb 9df2 7dbd
00000080: ca08 8c3d a4d5 c33d b624 e3bc aebd e63d
00000090: e3c4 133c e103 87bd 8a82 5ebd 38fc 893d
000000a0: 1da6 f6bc 4eb5 7f3d 88f5 e0bd 6018 8d3b
000000b0: c36b afbd c8cf 083d 3b94 003e 89d6 ac3c
000000c0: 1258 25bd 258b f4bd f095 72bd 352b afbd
000000d0: 7673 f33d 4aa4 89bd 4356 863d 734b e93d
000000e0: df4f 3c3d a2fb bbbd c6ae 68bc e862 1bbd
000000f0: dccf 793d df15 4ebc 77c0 3c3c a18b c13d
-0.08462715 -0.09864034 0.06927263 0.013654565 -0.01770084 -0.111899935 0.09970114 -0.079685606
0.05569844 -0.0151263755 0.0040732175 0.06137375 -0.03309384 -0.019683676 0.10070163 -0.11118385
0.055782113 -0.0148960855 -0.04443617 0.07879086 0.010578042 -0.13351594 0.09656117 -0.061356623
0.10797452 -0.05182838 0.105900384 0.03610999 -0.027927019 0.047716632 -0.0038871318 -0.061998952
0.06837614 0.09562233 -0.027727466 0.11266647 0.009019109 -0.06592537 -0.05432371 0.0673756
-0.030108506 0.062428765 -0.10984331 0.0043058842 -0.08565476 0.03340128 0.12556545 0.021098392
-0.040367194 -0.11940602 -0.059225023 -0.08553163 0.11887257 -0.06720789 0.06559422 0.11391344
0.04597461 -0.091788545 -0.0142018255 -0.03793612 0.060989246 -0.012578457 0.011520497 0.0945046

weight_ih_l1 f4 [64, 64]
00000000: b3c1 963d 2a82 d03d d742 acbd b7a0 003e
00000010: 7738 d4bc 6a55 9b3c f103 a2bc 6557 5fbd
00000020: b180 463d 4a88 5c3c 53e0 95bd 8802 c3bc
00000030: 5f3a fa3d 7701 463d 9a3c 223d 6415 ffbc
00000040: c879 48bc 85d7 163e 5171 66bd 8b71 3abb
00000050: 71ab b33c fd7d 17be 0b0f 89bd b747 673d
00000060: 4449 a9bd 7af6 c53c 9f3f 1abe 46a4 a3bd
00000070: 899f 63bd f90b 933d 1a01 c03d 0667 0cbe
00000080: 180e bd3d d7bd 2a3d 8e82 903d 97aa e63d
00000090: 01b7 18bd 6004 1f3e 17dd c03c a422 94bd
000000a0: 9e65 a63d f27f a43d c614 a73d a32a 9dbd
000000b0: f5dd 813b 688b 943d 10ce 36bb a6d2 86bd
000000c0: 886e 64bd 6927 e7bd 27ce e5bd 0897 65bc
000000d0: 130b c73b 4814 273e 35ec 003e 093e 3b3d
000000e0: eede e33d 48dd f33d c7f7 82bd 325a 9d3c
000000f0: a4ad 05be bbb2 573d 3308 2cbc 8ee3 92bc
00000100: f6da 363d afeb d43d 7c67 d9bc 5819 37bd
00000110: d05a 983b 3187 f53d 8977 e3bd a5d5 0fbd
00000120: d255 20bd 95b5 dabd 2c81 f73c 25dc 5a3d
00000130: 26b1 383d c1d7 713c 9a03 fd3d 196b 21bd
00000140: 74fb d9bc dd01 553c 92a9 f4bd 6109 b738
00000150: aed1 27be ac18 c6bc 5e41 12be bf29 c13d
00000160: ec6f 223d 834c 0ebe 2949 e5bd aa36 14be
00000170: 4557 e83c 9a77 b2bc d4ed 97bc fff8 f13c
00000180: a360 c83d bd33 88bd 8627 58bd 2395 04bc
00000190: 490f 5a3c 73b1 ec3d 1b1c 0e3d cff9 07be
000001a0: d31e 093e 0013 24be 9b72 473b 97ca c03d
000001b0: be36 203e 974e 9a3d d3b8 623c 1e9b 063d
000001c0: 12ad 82bd bcf6 8fbd 15c8 adbd 26d7 2bbc
000001d0: 06f1 02be 9575 953d c069 e23d 2ad5 123e
000001e0: 1651 cb3c 353b 2b3e 1db8 93bd e5b1 a6bd
000001f0: 671f 3339 250d 64bc 1db7 d63d 8503 04be
00000200: f6d6 e53c 1c37 2abe 45b3 16bd b927 6bbd
00000210: e282 94bd 7cfd 2bbe 202f 7ebd b04e 533d
00000220: 0b0d b0bc f8e1 133c a960 5dbd 4858 1fbe
00000230: 4af9 2abe 4d0f 0dbe 90ea 2dbe 7555 063e
00000240: e2bf bdbd 8377 a9bd 7092 70bd bf48 d5bc
00000250: 2709 f73c 7a0d 14bd 1327 043e 2a3c 673d
00000260: ab9b 24bd 4236 f53d 9987 ea3c 4980 433d
00000270: 0a3e 7b3d 24fa d53c bbae 6a3d 7ad6 003e
00000280: 422c 05be bc6e 00be 247a 99bd 9759 0dbc
00000290: 96ed 05be fd5e 1dbe 6429 06be d3ed 98bd
000002a0: b94f 1abe 8141 243e 3252 ab3c 8b4f 7d3d
000002b0: 1859 e0bd c593 1abb e419 b8bd dc81 733c
000002c0: 41f5 0dbe 8db2 893d 3f9c ffbc e49e 8c3d
000002d0: f154 273e c8b7 e3bc 8222 2d3d 393f 0dbe
000002e0: d042 88bd 1f18 06be df91 80bd 898f 55ba
000002f0: 063f bfbc 101d 93bd 0518 c3bd 8973 863d
00000300: 5461 85bd 7662 23be 8555 0c3e ebf3 4a3d
00000310: 9dee 03bd 1af7 f9bc 502a 013e 3aba 25be
00000320: f445 1dbe cb63 e63d 58d4 3abd 09e2 abba
00000330: 9dcd c2bd b2e5 b6bc fde3 223d 66b3 4e3c
00000340: 9e08 abbd 5335 26be 9c5d c33c 697d 1b3d
00000350: e197 99bd 9971 093d d979 093e 1369 a1bd
00000360: baa9 47bb b207 b23b 778a f5bb d3f7 6d3d
00000370: f95b efbd e32b ba3d aaff 98bd ee00 df3c
00000380: 9f3b 53bd e592 d73c cb58 0dbd be5b 20be
00000390: 00d5 f9bd 6612 0abe 1811 d9bd 7045 113e
000003a0: 7833 0fbe 478e f8bc c184 14be fff2 d8bd
000003b0: f00f 3fbd a282 07bd 4286 21bd e8de 4a3d
000003c0: 61e6 83bd 4dcc c63d 8d16 933d 56d2 273e
000003d0: a58c 163d cd8b 853d f887 4e3d 7124 883c
000003e0: 244d e23c 0691 0ebe 4fe6 01be daaa c53d
000003f0: 6165 b53d 28af 1f3e 7c5c 73bd 2c24 a53c
0.07361164 0.10181077 -0.08411186 0.12561308 -0.02590583 0.018961627 -0.01977727 -0.054526705
0.048462573 0.013460228 -0.07318177 -0.023804918 0.12218165 0.04834124 0.039608575 -0.03113813
-0.012236066 0.14730652 -0.05626041 -0.0028449025 0.021932336 -0.14794154 -0.06692322 0.056464877
-0.082659274 0.02416538 -0.15063332 -0.07990317 -0.055572066 0.07180018 0.0937521 -0.13711175
0.09231204 0.04168495 0.07056151 0.11263006 -0.0372839 0.15529013 0.023542924 -0.0723317
0.08124851 0.08032216 0.08158259 -0.07674148 0.003963227 0.07253152 -0.002789382 -0.06583147
-0.055769473 -0.11286814 -0.11220961 -0.014013059 0.006074318 0.1631633 0.12590106 0.04571346
0.11126505 0.119074404 -0.06394916 0.019208048 -0.1305452 0.052660685 -0.010500002 -0.017930772
0.04464241 0.103965156 -0.026538603 -0.044701904 0.0046494976 0.11988676 -0.11106784 -0.035115857
-0.039144345 -0.10679165 0.030212961 0.053432602 0.045090817 0.014760912 0.123542026 -0.039408777
-0.02660916 0.0130009325 -0.119464055 8.727867e-05 -0.1638858 -0.024181686 -0.14282748 0.094317906
0.03965752 -0.13896374 -0.11195595 -0.14473978 0.028361926 -0.021785546 -0.018546022 0.029537676
0.09784057 -0.06650493 -0.052772067 -0.008092198 0.013309308 0.11557283 0.034694772 -0.13278888
0.13390665 -0.16022873 0.00304333 0.09413641 0.15645882 0.07534521 0.013838011 0.032862775
-0.06380667 -0.07029483 -0.08485428 -0.010488307 -0.12787256 0.072978176 0.110553265 0.14339128
0.024818938 0.16721804 -0.07212851 -0.081393994 0.00017082469 -0.0139191495 0.10484145 -0.12891968
0.028056603 -0.16622585 -0.03679206 -0.05741093 -0.072515264 -0.16795915 -0.06205666 0.051588714
-0.021490594 0.009026043 -0.05404726 -0.1556102 -0.16696659 -0.13775368 -0.1698401 0.13118537
-0.09265114 -0.08274748 -0.058733404 -0.026035665 0.030155731 -0.036145665 0.1290553 0.05645386
-0.04018752 0.119732395 0.028629111 0.047729764 0.061338462 0.026120253 0.057295542 0.12581816
-0.13005164 -0.12542242 -0.074939996 -0.008627317 -0.13078913 -0.15368266 -0.13101727 -0.07467236
-0.15069474 0.16040613 0.020913217 0.061843436 -0.10954493 -0.0023586613 -0.08989313 0.014862504
-0.13863088 0.06723509 -0.031202434 0.068662435 0.16340996 -0.027797595 0.042269237 -0.13793649
-0.066533685 -0.13095139 -0.06277823 -0.00081466936 -0.023345482 -0.071832776 -0.09526066 0.06565005
-0.065127045 -0.15955529 0.13704498 0.049549025 -0.03220998 -0.030513335 0.12613797 -0.16184321
-0.15358716 0.11249503 -0.045612663 -0.0013113628 -0.09511874 -0.022326324 0.039768208 0.012616014
-0.08351253 -0.16231279 0.023848347 0.037961397 -0.07499672 0.0335556 0.13425387 -0.078813694
-0.0030466155 0.0054330463 -0.007493313 0.05809767 -0.11687464 0.09090402 -0.07470639 0.027222123
-0.05157053 0.026315162 -0.034508508 -0.15659997 -0.1219883 -0.13483581 -0.105989635 0.14186645
-0.13984478 -0.03034128 -0.14503767 -0.10593223 -0.04664606 -0.033083566 -0.03943468 0.049528986
-0.06440426 0.09706936 0.071820356 0.1638883 0.036755223 0.065208055 0.05042264 0.01661894
0.027624674 -0.1392251 -0.12685512 0.09651728 0.08857227 0.1559416 -0.05941437 0.02015885

weight_hh_l1 f4 [64, 64]
00000000: 4ce9 323e 2d17 ab3d 7f12 683d c96f 5bba
00000010: ba10 81bd 3587 ad3c df3d 8b3c a088 223d
00000020: 2ac0 863d 9901 573d 0fee ce3c 30ad c53b
00000030: 4c89 043d 9797 393e 38e6 8f3d eb06 1d3e
00000040: 0f3e ae3d d408 883d b75c 5dbd 83b5 933c
00000050: 1971 0dbe d48a 53bd 17a3 bf3d abb1 90bd
00000060: c482 5abc bfaf 54bc d54b 403d 4e17 01be
00000070: 4139 e73d ab37 2abd 3e79 8b3d a780 89bd
00000080: ec63 2fbe e742 b93c b8dc 5bbd 61c8 dabd
00000090: 3cd3 86bd b1a5 d13d 5f9c 4d3d a1c0 a0bd
000000a0: 3a31 463c 3ffb 1dbe ec50 0d3e e39e c3bd
000000b0: ba11 d1bd b742 d23d b391 243e e975 fb3d
000000c0: 05dd b53d 7434 683d 6472 49bd 9f1f b93d
000000d0: af5d 2b3d b238 fdbd 2341 03be 8f9c 283b
000000e0: 5c42 fd3d e52b 13be 4a47 17be 0fd3 1e3d
000000f0: 0a86 263d 77f6 27be 5d1c 8e3c 9c8a b1bd
00000100: 130e 8fbb 5185 e33d 52d1 4e3d 42cc 9c3c
00000110: 312d c6bd a87a 16be 9737 25be 56b4 723c
00000120: e02f 223c 8a6f 08bd e4cc 11bd 538e d3bd
00000130: 3013 c13d 483a 533b 8525 81bd dce7 3c3c
00000140: 90b3 133e 8b78 4cbd 6f74 0ebd bd55 53bd
00000150: cd1a b3bd 51f2 5f3d e6ff 103e 3c27 893d
00000160: b064 2fbd 6349 b03d 215e b2bc dfaf 04be
00000170: 168b 993d e438 973d 8444 043e f14e abbd
00000180: 2521 733d 1a35 5dbb c090 e7bd 1030 96bd
00000190: 8a29 b73d b35e 5abd f712 dfbd 0cca 27bc
000001a0: 2a61 823d 9777 0a3c f0a4 f5b7 2a6d 5b3d
000001b0: 72a6 ecbd c309 54bb eb40 0f3e 6014 3a3d
000001c0: 88a6 bc3d 0dc5 a7bd 90c3 13be e341 933d
000001d0: 447c e43d 26a4 153d 93fe 18bd e9a5 8c3d
000001e0: 2db3 143e c688 d4bc b03d 32bd 7445 913d
000001f0: ce17 8ebd 7f15 1abd 37e6 603d 4973 b53b
00000200: 7cf8 8fbd 8cb2 fdbd 0254 c53d 7caa 99bc
00000210: 0f9b 163e 753e 1d3e cd47 a23d 98a7 97bd
00000220: 2ec2 6cbd f104 8bbb 5ba4 f8bc 3113 c13c
00000230: ebcf 0abe 897d 37be 35ad 1dbd 1b70 06be
00000240: 1c06 fd3c 9c4f 473c 3e09 d3bd 017a c9bc
00000250: 9a3d 2a3e 53ed fdbc 3c14 043b bb1a 04bd
00000260: ca47 4d3c ddbf f5bd cae5 8d3c db4a 46bd
00000270: e734 fcbd e907 a3bc 7266 aabd 3011 b93d
00000280: 07bb ff3d bb4d 833a 8023 443b 09bb 82bd
00000290: d745 30be 7720 7cbd 2771 223e 479a 2b3d
000002a0: 5bb1 603c ef48 63bc 0bfa 38bd d67b 23bd
000002b0: b205 2a3d e862 06bd 1950 e3bd 2a63 473d
000002c0: a350 bdbc efc6 f83d 90ad 3b3e 4312 b2bc
000002d0: 43b4 87bd f6ca e13d 9139 7d3e d0ae 45be
000002e0: 2170 a4bd 39c5 fc3d 22ce a83c 2384 2cbe
000002f0: 2696 68bc bbc1 7d3b 1707 35bc 4b01 1a3e
00000300: bf66 65bd 6f3b 1cbe 9fd9 9b3d f121 a63d
00000310: b2ba c63c 08b0 b73d cf65 0c3c 65aa e73b
00000320: f004 2f3d 9d31 223b 1dbe 6c3d 09d3 353e
00000330: bc6f 8ebd ff59 3abe 7274 0d3e 3c90 9c3d
00000340: 16be 3bbc b37f 343d bf73 613d 6b6d 063e
00000350: 1a4a fe3d 5a32 16be 30db 5bbd 4765 cdbd
00000360: 8814 c03d 2fd4 20be de6d e6bc 1dd1 fc3d
00000370: 1d27 73bd 2df6 d8bd 7c41 01be da4b be3d
00000380: 0e2e 35bd 1c3f 563d 6425 a13d 4cfe 313d
00000390: 64b3 32be 4394 d0bc 99f2 aebb 8766 d43c
000003a0: 647c 12be 52cc 65bd 12be dfbc 9476 913d
000003b0: 6103 1b3e 32a4 5e3d fff8 0a3d 69ee aebc
000003c0: c6f1 ea3c 2090 ed3d fc90 86bd 6634 493c
000003d0: ddb6 1ebd 4a6f 633c bd86 9c3d b683 d53c
000003e0: 1f20 0d3d 684b 423d 7d58 80ba c72f 0dbe
000003f0: b773 063e adc4 01bb 925f 12be 602b 08bc
0.17471808 0.0835403 0.056658264 -0.00083708443 -0.063020185 0.021182636 0.016997276 0.039681077
0.06579621 0.052491758 0.02526 0.0060326084 0.0323575 0.18124233 0.070263326 0.1533467
0.085079305 0.06642309 -0.054043498 0.018030887 -0.13812675 -0.05164607 0.09357279 -0.070651375
-0.013336841 -0.012981354 0.04694732 -0.12606546 0.11290217 -0.041556995 0.068102345 -0.067139916
-0.17127961 0.02261491 -0.05367729 -0.106827505 -0.065832585 0.10236681 0.050197955 -0.07849241
0.012096697 -0.15427874 0.138004 -0.095517896 -0.10208459 0.10266631 0.16071205 0.12278349
0.08880047 0.05669065 -0.049181357 0.09039234 0.04183739 -0.123643294 -0.12817816 0.0025728082
0.12366173 -0.14372213 -0.14773288 0.0387755 0.040655173 -0.16402613 0.017347509 -0.08669016
-0.0043656914 0.111094125 0.050492592 0.019140366 -0.09676588 -0.14695227 -0.16134487 0.014813503
0.00989911 -0.033309497 -0.03559579 -0.103298806 0.09427488 0.0032230783 -0.063059844 0.011529889
0.14423966 -0.049919646 -0.03477901 -0.05159544 -0.08745346 0.05467445 0.14160118 0.066969365
-0.042820632 0.086077474 -0.0217734 -0.12957714 0.07497232 0.07383898 0.12916762 -0.08364666
0.05935778 -0.0033753575 -0.11306906 -0.07333386 0.0894347 -0.05331297 -0.10892289 -0.010241043
0.06366189 0.008451364 -2.9283081e-05 0.053570904 -0.115551844 -0.0032354451 0.13989608 0.045429587
0.09211451 -0.08191881 -0.1443007 0.07190301 0.11156514 0.036533497 -0.037352156 0.06867582
0.14521475 -0.025944125 -0.04351586 0.07093325 -0.06938134 -0.037618157 0.05490705 0.0055374247
-0.070298165 -0.12387571 0.09635164 -0.018758051 0.14707588 0.15355857 0.07923851 -0.07405013
-0.05780237 -0.0042425324 -0.030351808 0.023568721 -0.13555877 -0.17918982 -0.03849526 -0.13128702
0.030886702 0.012164976 -0.10304497 -0.024594309 0.16625062 -0.030996954 0.0020153662 -0.032252055
0.012529323 -0.11999486 0.017321486 -0.04841123 -0.12314778 -0.019901233 -0.08320321 0.090364814
0.124868445 0.0010017672 0.0029928386 -0.063833304 -0.17214142 -0.0615544 0.15863477 0.041895177
0.01371416 -0.013872369 -0.045160335 -0.03991302 0.041509338 -0.032809168 -0.11099262 0.048678555
-0.02310974 0.121473186 0.18327928 -0.021737223 -0.06626179 0.1102504 0.24728991 -0.19304967
-0.080291994 0.12342305 0.020606104 -0.16847281 -0.014195954 0.0038720209 -0.011049054 0.15039556
-0.05600619 -0.15257047 0.07609867 0.081119426 0.024258945 0.08969122 0.008569195 0.007069873
0.04272932 0.002474881 0.057798494 0.17756285 -0.069549054 -0.18198393 0.13813952 0.07644698
-0.011458894 0.044067096 0.055042025 0.13127677 0.124164775 -0.14667645 -0.05367583 -0.10029083
0.09378916 -0.15705942 -0.02812856 0.12344573 -0.059363473 -0.10593829 -0.12622637 0.09291811
-0.044233374 0.05230628 0.0786846 0.043455407 -0.17451245 -0.025461322 -0.0053389785 0.025927795
-0.14305264 -0.05610306 -0.027312312 0.07102695 0.15138008 0.054355808 0.033928867 -0.021353917
0.02867974 0.11599755 -0.06570622 0.012280559 -0.03874861 0.013881514 0.07642887 0.026063781
0.03445446 0.047435194 -0.0009791997 -0.13787757 0.13130079 -0.0019801066 -0.1429427 -0.008311123

bias_ih_l1 f4 [64]
00000000: 29c8 113d 4c4b 14bd f617 d4bd a337 a0bc
00000010: 1b07 cabd b7bc 1e3b 701c b3bc 0b4a 55bd
00000020: 0c9f f93d afa1 3bbc 43f7 b4bd 514c b4bd
00000030: 18aa cf3d 9c8c 9abd d638 04be 7237 c43d
00000040: c6bb 8e3b a70e be3c 792b 62bd b472 03bd
00000050: bae1 aa3c a2ed 9dbb 3cdb 563d 0682 473d
00000060: 2684 86bd 74ab 153e d324 a23d fec6 dfbc
00000070: 9ada 6e3d 8413 463d 59b5 e33d a7b9 31bd
00000080: d157 30bc 5543 5b3d 246f 263d a7e0 cfbd
00000090: 565a 74bd 0f09 883d 4d79 07be 34cd 2fbe
000000a0: 76ee fe3d af49 10be 9b88 1d3e 2fc2 21be
000000b0: 7b87 1ebe 1064 ea3d 4ab4 423d a65f adbb
000000c0: 7561 c33d 2953 f7bd c528 e6bd 92fe 90bd
000000d0: f9e0 eebc cfed 1dbe bf12 a03d 0ea8 f8bb
000000e0: ce75 803d 5c25 d1bd ece2 93bd 3cae 0b3e
000000f0: 1688 2cbc bba5 343c 4b21 b93d 1ba1 1cbe
0.03559128 -0.03620462 -0.10356133 -0.01955778 -0.098646365 0.002422137 -0.021864146 -0.052072566
0.12188539 -0.011452123 -0.08836224 -0.08803619 0.10139865 -0.0754635 -0.12912306 0.09580888
0.0043558804 0.023200346 -0.05521724 -0.03209181 0.020859588 -0.004819588 0.052455172 0.048707984
-0.06568174 0.14616185 0.0791718 -0.027316567 0.058313943 0.048358455 0.11118574 -0.043389942
-0.010763125 0.05353101 0.040633336 -0.10150271 -0.059656464 0.06642353 -0.13229866 -0.17168123
0.124478266 -0.14090608 0.15384142 -0.15796731 -0.15481369 0.11444867 0.04753522 -0.005290943
0.09540073 -0.120764084 -0.11238245 -0.070798054 -0.02916001 -0.15422748 0.078160755 -0.007588393
0.062724695 -0.10212204 -0.07221016 0.13640684 -0.010530492 0.011025841 0.09039553 -0.15295832

bias_hh_l1 f4 [64]
00000000: ac94 f33d d4c8 163e 3849 3dbc f72a 673d
00000010: 2bb0 dbbd 70ab fdbd 123b 0fbe d998 0d3d
00000020: fcc6 283d c3fc e0bc 7005 b0bd e185 a8bd
00000030: 18b4 303e 5c34 1f3d d92c 7f3d a6b4 6b3d
00000040: aab5 b13d d39c f33d c166 6dbd d413 cfbd
00000050: c028 08be 589d 253e 76ce b53d 68da ecbb
00000060: 3aae 08be bc9e ea3d 50a4 9b3d 1f8c e6bd
00000070: 809a e9bc 1d95 69bc 6f94 983d eb8f 1fbe
00000080: f4f8 55bd 2247 d73c 96ca 9b3c 3d99 2cbd
00000090: d24b 653d 2f6c 803d 145b f83a 3d1b 523d
000000a0: e3ac 943d 58ab 003d 6ad6 f03d 0a21 0fbe
000000b0: 4b40 f5bd 2ac3 e33d 85e3 803d 661c bcbc
000000c0: d8db ad3d 96dc 1cbe 5a4f b8bd 32a3 e63d
000000d0: f954 013d e57c 06be b880 063d 6413 633d
000000e0: 4e8e c13c cb23 2abe 9494 b5bd 943f 713d
000000f0: ecc8 d4bd 05c0 e7bc f1bf 20bd 6cda 393d
0.11893591 0.14725047 -0.011553101 0.05643746 -0.10726961 -0.12386215 -0.13987377 0.034569595
0.04120539 -0.027464276 -0.08594787 -0.082286604 0.172562 0.038868293 0.06229863 0.057545327
0.08677228 0.11895146 -0.057959322 -0.10111204 -0.13296795 0.16173303 0.0887727 -0.0072281845
-0.13347712 0.114560574 0.075996995 -0.11257195 -0.028516054 -0.014256743 0.074501865 -0.15582244
-0.052239373 0.026279036 0.019017499 -0.042138327 0.05598051 0.062706344 0.0018948042 0.051295508
0.07259538 0.031413406 0.11759646 -0.13977447 -0.119751535 0.11121209 0.06293396 -0.02296276
0.084891975 -0.15318522 -0.0899951 0.11261596 0.031575177 -0.13133581 0.0328376 0.055438414
0.023627426 -0.16615216 -0.0886623 0.058898523 -0.10389885 -0.028289804 -0.03924555 0.04537432

weight f4 [1, 64]
00000000: cd95 e13f c233 df3f a770 d8bf 840c e5bf
00000010: 9dd9 ddbf 675b d6bf 7e3a e5bf a4ae e13f
00000020: 6725 da3f a132 e33f d488 e5bf f227 debf
00000030: eb34 da3f f0d9 d63f 1a6b debf 4014 e13f
00000040: 6b60 dd3f 2361 d63f 9fcf e23f 155a e7bf
00000050: eb26 e4bf b266 da3f f440 e43f b94f de3f
00000060: 902c dfbf 04f8 e03f c8a8 dd3f 211e d7bf
00000070: cfc2 dd3f 62ab d93f 8bd3 d43f 9977 dbbf
00000080: 7ec7 debf c873 e1bf 3080 d9bf f350 ddbf
00000090: da78 dd3f 9acf d93f 8157 e5bf facb e0bf
000000a0: 7022 e13f ad54 ddbf ad1a da3f faca dfbf
000000b0: e741 d8bf d35f de3f 2c2b da3f d4d2 de3f
000000c0: 9d98 d53f d0fe e2bf 33f4 d6bf 8e88 e13f
000000d0: 8192 d93f 2f98 d1bf 1283 d7bf d05d e53f
000000e0: a51e de3f d09c d9bf fea1 ddbf 0e48 e43f
000000f0: 3599 debf beb2 e1bf bd33 dc3f 5710 e1bf
1.762384 1.743767 -1.6909379 -1.7894444 -1.7332035 -1.6746644 -1.7908475 1.7631421
1.7042664 1.7749826 -1.7932382 -1.735594 1.7047399 1.6785259 -1.7376435 1.7584305
1.729505 1.6748394 1.7719611 -1.8074366 -1.7824377 1.706259 1.7832322 1.736808
-1.7435474 1.7575688 1.7317133 -1.680607 1.7325076 1.7005427 1.6627058 -1.7145873
-1.740463 -1.7613459 -1.6992245 -1.7290329 1.7302506 1.701648 -1.7917329 -1.7562249
1.7588634 -1.7291466 1.7039391 -1.7483819 -1.6895112 1.7372993 1.7044425 1.740809
1.6687199 -1.7734013 -1.6793274 1.7619798 1.6997834 -1.6374568 -1.6836874 1.7919254
1.7353102 -1.700098 -1.7315061 1.7834489 -1.7390505 -1.7632673 1.7203289 -1.7583112
